…
I0720 20:09:58.353747 32162 solver.cpp:70] Creating training net from net file: /home/gavin/caffe/models/sn_siamese_bigger/train_val.prototxt
I0720 20:09:58.354528 32162 net.cpp:287] The NetState phase (0) differed from the phase (1) specified by a rule in layer pair_data
I0720 20:09:58.354720 32162 net.cpp:42] Initializing net from parameters: 
name: "sn_siamese_bigger"
state {
  phase: TRAIN
}
layer {
  name: "pair_data"
  type: "Data"
  top: "pair_data"
  top: "sim"
  include {
    phase: TRAIN
  }
  transform_param {
    scale: 0.00390625
  }
  data_param {
    source: "/media/gavin/1c4675c9-b013-459a-a341-4d7675b098ca/siamese_bigger_staging/train"
    batch_size: 32
  }
}
layer {
  name: "slice_pair"
  type: "Slice"
  bottom: "pair_data"
  top: "data"
  top: "data_p"
  slice_param {
    slice_dim: 1
    slice_point: 1
  }
}
layer {
  name: "conv1"
  type: "Convolution"
  bottom: "data"
  top: "conv1"
  param {
    name: "conv1_w"
    lr_mult: 1
  }
  param {
    name: "conv1_b"
    lr_mult: 2
  }
  convolution_param {
    num_output: 20
    kernel_size: 5
    stride: 1
    weight_filler {
      type: "xavier"
    }
    bias_filler {
      type: "constant"
    }
  }
}
layer {
  name: "pool1"
  type: "Pooling"
  bottom: "conv1"
  top: "pool1"
  pooling_param {
    pool: MAX
    kernel_size: 2
    stride: 2
  }
}
layer {
  name: "conv2"
  type: "Convolution"
  bottom: "pool1"
  top: "conv2"
  param {
    name: "conv2_w"
    lr_mult: 1
  }
  param {
    name: "conv2_b"
    lr_mult: 2
  }
  convolution_param {
    num_output: 50
    kernel_size: 5
    stride: 1
    weight_filler {
      type: "xavier"
    }
    bias_filler {
      type: "constant"
    }
  }
}
layer {
  name: "pool2"
  type: "Pooling"
  bottom: "conv2"
  top: "pool2"
  pooling_param {
    pool: MAX
    kernel_size: 2
    stride: 2
  }
}
layer {
  name: "ip1"
  type: "InnerProduct"
  bottom: "pool2"
  top: "ip1"
  param {
    name: "ip1_w"
    lr_mult: 1
  }
  param {
    name: "ip1_b"
    lr_mult: 2
  }
  inner_product_param {
    num_output: 500
    weight_filler {
      type: "xavier"
    }
    bias_filler {
      type: "constant"
    }
  }
}
layer {
  name: "relu1"
  type: "ReLU"
  bottom: "ip1"
  top: "ip1"
}
layer {
  name: "ip2"
  type: "InnerProduct"
  bottom: "ip1"
  top: "ip2"
  param {
    name: "ip2_w"
    lr_mult: 1
  }
  param {
    name: "ip2_b"
    lr_mult: 2
  }
  inner_product_param {
    num_output: 34
    weight_filler {
      type: "xavier"
    }
    bias_filler {
      type: "constant"
    }
  }
}
layer {
  name: "feat"
  type: "InnerProduct"
  bottom: "ip2"
  top: "feat"
  param {
    name: "feat_w"
    lr_mult: 1
  }
  param {
    name: "feat_b"
    lr_mult: 2
  }
  inner_product_param {
    num_output: 2
    weight_filler {
      type: "xavier"
    }
    bias_filler {
      type: "constant"
    }
  }
}
layer {
  name: "conv1_p"
  type: "Convolution"
  bottom: "data_p"
  top: "conv1_p"
  param {
    name: "conv1_w"
    lr_mult: 1
  }
  param {
    name: "conv1_b"
    lr_mult: 2
  }
  convolution_param {
    num_output: 20
    kernel_size: 5
    stride: 1
    weight_filler {
      type: "xavier"
    }
    bias_filler {
      type: "constant"
    }
  }
}
layer {
  name: "pool1_p"
  type: "Pooling"
  bottom: "conv1_p"
  top: "pool1_p"
  pooling_param {
    pool: MAX
    kernel_size: 2
    stride: 2
  }
}
layer {
  name: "conv2_p"
  type: "Convolution"
  bottom: "pool1_p"
  top: "conv2_p"
  param {
    name: "conv2_w"
    lr_mult: 1
  }
  param {
    name: "conv2_b"
    lr_mult: 2
  }
  convolution_param {
    num_output: 50
    kernel_size: 5
    stride: 1
    weight_filler {
      type: "xavier"
    }
    bias_filler {
      type: "constant"
    }
  }
}
layer {
  name: "pool2_p"
  type: "Pooling"
  bottom: "conv2_p"
  top: "pool2_p"
  pooling_param {
    pool: MAX
    kernel_size: 2
    stride: 2
  }
}
layer {
  name: "ip1_p"
  type: "InnerProduct"
  bottom: "pool2_p"
  top: "ip1_p"
  param {
    name: "ip1_w"
    lr_mult: 1
  }
  param {
    name: "ip1_b"
    lr_mult: 2
  }
  inner_product_param {
    num_output: 500
    weight_filler {
      type: "xavier"
    }
    bias_filler {
      type: "constant"
    }
  }
}
layer {
  name: "relu1_p"
  type: "ReLU"
  bottom: "ip1_p"
  top: "ip1_p"
}
layer {
  name: "ip2_p"
  type: "InnerProduct"
  bottom: "ip1_p"
  top: "ip2_p"
  param {
    name: "ip2_w"
    lr_mult: 1
  }
  param {
    name: "ip2_b"
    lr_mult: 2
  }
  inner_product_param {
    num_output: 34
    weight_filler {
      type: "xavier"
    }
    bias_filler {
      type: "constant"
    }
  }
}
layer {
  name: "feat_p"
  type: "InnerProduct"
  bottom: "ip2_p"
  top: "feat_p"
  param {
    name: "feat_w"
    lr_mult: 1
  }
  param {
    name: "feat_b"
    lr_mult: 2
  }
  inner_product_param {
    num_output: 2
    weight_filler {
      type: "xavier"
    }
    bias_filler {
      type: "constant"
    }
  }
}
layer {
  name: "loss"
  type: "ContrastiveLoss"
  bottom: "feat"
  bottom: "feat_p"
  bottom: "sim"
  top: "loss"
  contrastive_loss_param {
    margin: 1
  }
}
I0720 20:09:58.354868 32162 layer_factory.hpp:74] Creating layer pair_data
I0720 20:09:58.354889 32162 net.cpp:90] Creating Layer pair_data
I0720 20:09:58.354899 32162 net.cpp:368] pair_data -> pair_data
I0720 20:09:58.354926 32162 net.cpp:368] pair_data -> sim
I0720 20:09:58.354939 32162 net.cpp:120] Setting up pair_data
I0720 20:09:59.337493 32162 db.cpp:20] Opened leveldb /media/gavin/1c4675c9-b013-459a-a341-4d7675b098ca/siamese_bigger_staging/train
I0720 20:09:59.491050 32162 data_layer.cpp:52] output data size: 32,2,227,227
I0720 20:09:59.498399 32162 net.cpp:127] Top shape: 32 2 227 227 (3297856)
I0720 20:09:59.498432 32162 net.cpp:127] Top shape: 32 (32)
I0720 20:09:59.498445 32162 layer_factory.hpp:74] Creating layer slice_pair
I0720 20:09:59.498466 32162 net.cpp:90] Creating Layer slice_pair
I0720 20:09:59.498476 32162 net.cpp:410] slice_pair <- pair_data
I0720 20:09:59.498492 32162 net.cpp:368] slice_pair -> data
I0720 20:09:59.498508 32162 net.cpp:368] slice_pair -> data_p
I0720 20:09:59.498517 32162 net.cpp:120] Setting up slice_pair
I0720 20:09:59.498531 32162 net.cpp:127] Top shape: 32 1 227 227 (1648928)
I0720 20:09:59.498538 32162 net.cpp:127] Top shape: 32 1 227 227 (1648928)
I0720 20:09:59.498544 32162 layer_factory.hpp:74] Creating layer conv1
I0720 20:09:59.498582 32162 net.cpp:90] Creating Layer conv1
I0720 20:09:59.498589 32162 net.cpp:410] conv1 <- data
I0720 20:09:59.498600 32162 net.cpp:368] conv1 -> conv1
I0720 20:09:59.498612 32162 net.cpp:120] Setting up conv1
I0720 20:09:59.577376 32162 net.cpp:127] Top shape: 32 20 223 223 (31826560)
I0720 20:09:59.577415 32162 layer_factory.hpp:74] Creating layer pool1
I0720 20:09:59.577433 32162 net.cpp:90] Creating Layer pool1
I0720 20:09:59.577441 32162 net.cpp:410] pool1 <- conv1
I0720 20:09:59.577455 32162 net.cpp:368] pool1 -> pool1
I0720 20:09:59.577467 32162 net.cpp:120] Setting up pool1
I0720 20:09:59.577672 32162 net.cpp:127] Top shape: 32 20 112 112 (8028160)
I0720 20:09:59.577682 32162 layer_factory.hpp:74] Creating layer conv2
I0720 20:09:59.577695 32162 net.cpp:90] Creating Layer conv2
I0720 20:09:59.577702 32162 net.cpp:410] conv2 <- pool1
I0720 20:09:59.577710 32162 net.cpp:368] conv2 -> conv2
I0720 20:09:59.577720 32162 net.cpp:120] Setting up conv2
I0720 20:09:59.578253 32162 net.cpp:127] Top shape: 32 50 108 108 (18662400)
I0720 20:09:59.578265 32162 layer_factory.hpp:74] Creating layer pool2
I0720 20:09:59.578274 32162 net.cpp:90] Creating Layer pool2
I0720 20:09:59.578280 32162 net.cpp:410] pool2 <- conv2
I0720 20:09:59.578289 32162 net.cpp:368] pool2 -> pool2
I0720 20:09:59.578306 32162 net.cpp:120] Setting up pool2
I0720 20:09:59.578382 32162 net.cpp:127] Top shape: 32 50 54 54 (4665600)
I0720 20:09:59.578388 32162 layer_factory.hpp:74] Creating layer ip1
I0720 20:09:59.578402 32162 net.cpp:90] Creating Layer ip1
I0720 20:09:59.578408 32162 net.cpp:410] ip1 <- pool2
I0720 20:09:59.578414 32162 net.cpp:368] ip1 -> ip1
I0720 20:09:59.578426 32162 net.cpp:120] Setting up ip1
I0720 20:10:00.164341 32162 net.cpp:127] Top shape: 32 500 (16000)
I0720 20:10:00.164439 32162 layer_factory.hpp:74] Creating layer relu1
I0720 20:10:00.164477 32162 net.cpp:90] Creating Layer relu1
I0720 20:10:00.164499 32162 net.cpp:410] relu1 <- ip1
I0720 20:10:00.164535 32162 net.cpp:357] relu1 -> ip1 (in-place)
I0720 20:10:00.164566 32162 net.cpp:120] Setting up relu1
I0720 20:10:00.164824 32162 net.cpp:127] Top shape: 32 500 (16000)
I0720 20:10:00.164844 32162 layer_factory.hpp:74] Creating layer ip2
I0720 20:10:00.164894 32162 net.cpp:90] Creating Layer ip2
I0720 20:10:00.164911 32162 net.cpp:410] ip2 <- ip1
I0720 20:10:00.164939 32162 net.cpp:368] ip2 -> ip2
I0720 20:10:00.164968 32162 net.cpp:120] Setting up ip2
I0720 20:10:00.165225 32162 net.cpp:127] Top shape: 32 34 (1088)
I0720 20:10:00.165249 32162 layer_factory.hpp:74] Creating layer feat
I0720 20:10:00.165282 32162 net.cpp:90] Creating Layer feat
I0720 20:10:00.165298 32162 net.cpp:410] feat <- ip2
I0720 20:10:00.165323 32162 net.cpp:368] feat -> feat
I0720 20:10:00.165351 32162 net.cpp:120] Setting up feat
I0720 20:10:00.165393 32162 net.cpp:127] Top shape: 32 2 (64)
I0720 20:10:00.165423 32162 layer_factory.hpp:74] Creating layer conv1_p
I0720 20:10:00.165455 32162 net.cpp:90] Creating Layer conv1_p
I0720 20:10:00.165469 32162 net.cpp:410] conv1_p <- data_p
I0720 20:10:00.165508 32162 net.cpp:368] conv1_p -> conv1_p
I0720 20:10:00.165537 32162 net.cpp:120] Setting up conv1_p
I0720 20:10:00.166821 32162 net.cpp:127] Top shape: 32 20 223 223 (31826560)
I0720 20:10:00.166864 32162 net.cpp:459] Sharing parameters 'conv1_w' owned by layer 'conv1', param index 0
I0720 20:10:00.166901 32162 net.cpp:459] Sharing parameters 'conv1_b' owned by layer 'conv1', param index 1
I0720 20:10:00.166919 32162 layer_factory.hpp:74] Creating layer pool1_p
I0720 20:10:00.166949 32162 net.cpp:90] Creating Layer pool1_p
I0720 20:10:00.166965 32162 net.cpp:410] pool1_p <- conv1_p
I0720 20:10:00.166988 32162 net.cpp:368] pool1_p -> pool1_p
I0720 20:10:00.167016 32162 net.cpp:120] Setting up pool1_p
I0720 20:10:00.167438 32162 net.cpp:127] Top shape: 32 20 112 112 (8028160)
I0720 20:10:00.167464 32162 layer_factory.hpp:74] Creating layer conv2_p
I0720 20:10:00.167501 32162 net.cpp:90] Creating Layer conv2_p
I0720 20:10:00.167523 32162 net.cpp:410] conv2_p <- pool1_p
I0720 20:10:00.167551 32162 net.cpp:368] conv2_p -> conv2_p
I0720 20:10:00.167582 32162 net.cpp:120] Setting up conv2_p
I0720 20:10:00.168627 32162 net.cpp:127] Top shape: 32 50 108 108 (18662400)
I0720 20:10:00.168660 32162 net.cpp:459] Sharing parameters 'conv2_w' owned by layer 'conv2', param index 0
I0720 20:10:00.168681 32162 net.cpp:459] Sharing parameters 'conv2_b' owned by layer 'conv2', param index 1
I0720 20:10:00.168696 32162 layer_factory.hpp:74] Creating layer pool2_p
I0720 20:10:00.168717 32162 net.cpp:90] Creating Layer pool2_p
I0720 20:10:00.168732 32162 net.cpp:410] pool2_p <- conv2_p
I0720 20:10:00.168752 32162 net.cpp:368] pool2_p -> pool2_p
I0720 20:10:00.168774 32162 net.cpp:120] Setting up pool2_p
I0720 20:10:00.168886 32162 net.cpp:127] Top shape: 32 50 54 54 (4665600)
I0720 20:10:00.168905 32162 layer_factory.hpp:74] Creating layer ip1_p
I0720 20:10:00.168927 32162 net.cpp:90] Creating Layer ip1_p
I0720 20:10:00.168941 32162 net.cpp:410] ip1_p <- pool2_p
I0720 20:10:00.168963 32162 net.cpp:368] ip1_p -> ip1_p
I0720 20:10:00.168989 32162 net.cpp:120] Setting up ip1_p
I0720 20:10:00.759588 32162 net.cpp:127] Top shape: 32 500 (16000)
I0720 20:10:00.759680 32162 net.cpp:459] Sharing parameters 'ip1_w' owned by layer 'ip1', param index 0
I0720 20:10:00.763931 32162 net.cpp:459] Sharing parameters 'ip1_b' owned by layer 'ip1', param index 1
I0720 20:10:00.764124 32162 layer_factory.hpp:74] Creating layer relu1_p
I0720 20:10:00.764176 32162 net.cpp:90] Creating Layer relu1_p
I0720 20:10:00.764204 32162 net.cpp:410] relu1_p <- ip1_p
I0720 20:10:00.764243 32162 net.cpp:357] relu1_p -> ip1_p (in-place)
I0720 20:10:00.764286 32162 net.cpp:120] Setting up relu1_p
I0720 20:10:00.764577 32162 net.cpp:127] Top shape: 32 500 (16000)
I0720 20:10:00.764611 32162 layer_factory.hpp:74] Creating layer ip2_p
I0720 20:10:00.764680 32162 net.cpp:90] Creating Layer ip2_p
I0720 20:10:00.764701 32162 net.cpp:410] ip2_p <- ip1_p
I0720 20:10:00.764736 32162 net.cpp:368] ip2_p -> ip2_p
I0720 20:10:00.764798 32162 net.cpp:120] Setting up ip2_p
I0720 20:10:00.765049 32162 net.cpp:127] Top shape: 32 34 (1088)
I0720 20:10:00.765094 32162 net.cpp:459] Sharing parameters 'ip2_w' owned by layer 'ip2', param index 0
I0720 20:10:00.765122 32162 net.cpp:459] Sharing parameters 'ip2_b' owned by layer 'ip2', param index 1
I0720 20:10:00.765148 32162 layer_factory.hpp:74] Creating layer feat_p
I0720 20:10:00.765180 32162 net.cpp:90] Creating Layer feat_p
I0720 20:10:00.765202 32162 net.cpp:410] feat_p <- ip2_p
I0720 20:10:00.765238 32162 net.cpp:368] feat_p -> feat_p
I0720 20:10:00.765271 32162 net.cpp:120] Setting up feat_p
I0720 20:10:00.765326 32162 net.cpp:127] Top shape: 32 2 (64)
I0720 20:10:00.765353 32162 net.cpp:459] Sharing parameters 'feat_w' owned by layer 'feat', param index 0
I0720 20:10:00.765382 32162 net.cpp:459] Sharing parameters 'feat_b' owned by layer 'feat', param index 1
I0720 20:10:00.765408 32162 layer_factory.hpp:74] Creating layer loss
I0720 20:10:00.765470 32162 net.cpp:90] Creating Layer loss
I0720 20:10:00.765491 32162 net.cpp:410] loss <- feat
…
I0720 20:10:00.767484 32162 solver.cpp:154] Creating test net (#0) specified by net file: /home/gavin/caffe/models/sn_siamese_bigger/train_val.prototxt
I0720 20:10:00.767539 32162 net.cpp:287] The NetState phase (1) differed from the phase (0) specified by a rule in layer pair_data
I0720 20:10:00.767765 32162 net.cpp:42] Initializing net from parameters: 
name: "sn_siamese_bigger"
state {
  phase: TEST
}
layer {
  name: "pair_data"
  type: "Data"
  top: "pair_data"
  top: "sim"
  include {
    phase: TEST
  }
  transform_param {
    scale: 0.00390625
  }
  data_param {
    source: "/media/gavin/e2bcddc2-a2ea-4321-839e-29b2db8373dc/siamese_bigger_staging/test"
    batch_size: 50
  }
}
layer {
  name: "slice_pair"
  type: "Slice"
  bottom: "pair_data"
  top: "data"
  top: "data_p"
  slice_param {
    slice_dim: 1
    slice_point: 1
  }
}
layer {
  name: "conv1"
  type: "Convolution"
  bottom: "data"
  top: "conv1"
  param {
    name: "conv1_w"
    lr_mult: 1
  }
  param {
    name: "conv1_b"
    lr_mult: 2
  }
  convolution_param {
    num_output: 20
    kernel_size: 5
    stride: 1
    weight_filler {
      type: "xavier"
    }
    bias_filler {
      type: "constant"
    }
  }
}
layer {
  name: "pool1"
  type: "Pooling"
  bottom: "conv1"
  top: "pool1"
  pooling_param {
    pool: MAX
    kernel_size: 2
    stride: 2
  }
}
layer {
  name: "conv2"
  type: "Convolution"
  bottom: "pool1"
  top: "conv2"
  param {
    name: "conv2_w"
    lr_mult: 1
  }
  param {
    name: "conv2_b"
    lr_mult: 2
  }
  convolution_param {
    num_output: 50
    kernel_size: 5
    stride: 1
    weight_filler {
      type: "xavier"
    }
    bias_filler {
      type: "constant"
    }
  }
}
layer {
  name: "pool2"
  type: "Pooling"
  bottom: "conv2"
  top: "pool2"
  pooling_param {
    pool: MAX
    kernel_size: 2
    stride: 2
  }
}
layer {
  name: "ip1"
  type: "InnerProduct"
  bottom: "pool2"
  top: "ip1"
  param {
    name: "ip1_w"
    lr_mult: 1
  }
  param {
    name: "ip1_b"
    lr_mult: 2
  }
  inner_product_param {
    num_output: 500
    weight_filler {
      type: "xavier"
    }
    bias_filler {
      type: "constant"
    }
  }
}
layer {
  name: "relu1"
  type: "ReLU"
  bottom: "ip1"
  top: "ip1"
}
layer {
  name: "ip2"
  type: "InnerProduct"
  bottom: "ip1"
  top: "ip2"
  param {
    name: "ip2_w"
    lr_mult: 1
  }
  param {
    name: "ip2_b"
    lr_mult: 2
  }
  inner_product_param {
    num_output: 34
    weight_filler {
      type: "xavier"
    }
    bias_filler {
      type: "constant"
    }
  }
}
layer {
  name: "feat"
  type: "InnerProduct"
  bottom: "ip2"
  top: "feat"
  param {
    name: "feat_w"
    lr_mult: 1
  }
  param {
    name: "feat_b"
    lr_mult: 2
  }
  inner_product_param {
    num_output: 2
    weight_filler {
      type: "xavier"
    }
    bias_filler {
      type: "constant"
    }
  }
}
layer {
  name: "conv1_p"
  type: "Convolution"
  bottom: "data_p"
  top: "conv1_p"
  param {
    name: "conv1_w"
    lr_mult: 1
  }
  param {
    name: "conv1_b"
    lr_mult: 2
  }
  convolution_param {
    num_output: 20
    kernel_size: 5
    stride: 1
    weight_filler {
      type: "xavier"
    }
    bias_filler {
      type: "constant"
    }
  }
}
layer {
  name: "pool1_p"
  type: "Pooling"
  bottom: "conv1_p"
  top: "pool1_p"
  pooling_param {
    pool: MAX
    kernel_size: 2
    stride: 2
  }
}
layer {
  name: "conv2_p"
  type: "Convolution"
  bottom: "pool1_p"
  top: "conv2_p"
  param {
    name: "conv2_w"
    lr_mult: 1
  }
  param {
    name: "conv2_b"
    lr_mult: 2
  }
  convolution_param {
    num_output: 50
    kernel_size: 5
    stride: 1
    weight_filler {
      type: "xavier"
    }
    bias_filler {
      type: "constant"
    }
  }
}
layer {
  name: "pool2_p"
  type: "Pooling"
  bottom: "conv2_p"
  top: "pool2_p"
  pooling_param {
    pool: MAX
    kernel_size: 2
    stride: 2
  }
}
layer {
  name: "ip1_p"
  type: "InnerProduct"
  bottom: "pool2_p"
  top: "ip1_p"
  param {
    name: "ip1_w"
    lr_mult: 1
  }
  param {
    name: "ip1_b"
    lr_mult: 2
  }
  inner_product_param {
    num_output: 500
    weight_filler {
      type: "xavier"
    }
    bias_filler {
      type: "constant"
    }
  }
}
layer {
  name: "relu1_p"
  type: "ReLU"
  bottom: "ip1_p"
  top: "ip1_p"
}
layer {
  name: "ip2_p"
  type: "InnerProduct"
  bottom: "ip1_p"
  top: "ip2_p"
  param {
    name: "ip2_w"
    lr_mult: 1
  }
  param {
    name: "ip2_b"
    lr_mult: 2
  }
  inner_product_param {
    num_output: 34
    weight_filler {
      type: "xavier"
    }
    bias_filler {
      type: "constant"
    }
  }
}
layer {
  name: "feat_p"
  type: "InnerProduct"
  bottom: "ip2_p"
  top: "feat_p"
  param {
    name: "feat_w"
    lr_mult: 1
  }
  param {
    name: "feat_b"
    lr_mult: 2
  }
  inner_product_param {
    num_output: 2
    weight_filler {
      type: "xavier"
    }
    bias_filler {
      type: "constant"
    }
  }
}
layer {
  name: "loss"
  type: "ContrastiveLoss"
  bottom: "feat"
  bottom: "feat_p"
  bottom: "sim"
  top: "loss"
  contrastive_loss_param {
    margin: 1
  }
}
I0720 20:10:00.767868 32162 layer_factory.hpp:74] Creating layer pair_data
I0720 20:10:00.767879 32162 net.cpp:90] Creating Layer pair_data
I0720 20:10:00.767885 32162 net.cpp:368] pair_data -> pair_data
I0720 20:10:00.767897 32162 net.cpp:368] pair_data -> sim
I0720 20:10:00.767907 32162 net.cpp:120] Setting up pair_data
I0720 20:10:00.799398 32162 db.cpp:20] Opened leveldb /media/gavin/e2bcddc2-a2ea-4321-839e-29b2db8373dc/siamese_bigger_staging/test
I0720 20:10:00.803360 32162 data_layer.cpp:52] output data size: 50,2,227,227
I0720 20:10:00.814273 32162 net.cpp:127] Top shape: 50 2 227 227 (5152900)
I0720 20:10:00.814311 32162 net.cpp:127] Top shape: 50 (50)
I0720 20:10:00.814326 32162 layer_factory.hpp:74] Creating layer slice_pair
I0720 20:10:00.814348 32162 net.cpp:90] Creating Layer slice_pair
I0720 20:10:00.814358 32162 net.cpp:410] slice_pair <- pair_data
I0720 20:10:00.814373 32162 net.cpp:368] slice_pair -> data
I0720 20:10:00.814393 32162 net.cpp:368] slice_pair -> data_p
I0720 20:10:00.814405 32162 net.cpp:120] Setting up slice_pair
I0720 20:10:00.814420 32162 net.cpp:127] Top shape: 50 1 227 227 (2576450)
I0720 20:10:00.814466 32162 net.cpp:127] Top shape: 50 1 227 227 (2576450)
I0720 20:10:00.814476 32162 layer_factory.hpp:74] Creating layer conv1
I0720 20:10:00.814501 32162 net.cpp:90] Creating Layer conv1
I0720 20:10:00.814514 32162 net.cpp:410] conv1 <- data
I0720 20:10:00.814541 32162 net.cpp:368] conv1 -> conv1
I0720 20:10:00.814558 32162 net.cpp:120] Setting up conv1
I0720 20:10:00.815166 32162 net.cpp:127] Top shape: 50 20 223 223 (49729000)
I0720 20:10:00.815183 32162 layer_factory.hpp:74] Creating layer pool1
I0720 20:10:00.815197 32162 net.cpp:90] Creating Layer pool1
I0720 20:10:00.815206 32162 net.cpp:410] pool1 <- conv1
I0720 20:10:00.815215 32162 net.cpp:368] pool1 -> pool1
I0720 20:10:00.815227 32162 net.cpp:120] Setting up pool1
I0720 20:10:00.815307 32162 net.cpp:127] Top shape: 50 20 112 112 (12544000)
I0720 20:10:00.815315 32162 layer_factory.hpp:74] Creating layer conv2
I0720 20:10:00.815328 32162 net.cpp:90] Creating Layer conv2
I0720 20:10:00.815336 32162 net.cpp:410] conv2 <- pool1
I0720 20:10:00.815349 32162 net.cpp:368] conv2 -> conv2
I0720 20:10:00.815361 32162 net.cpp:120] Setting up conv2
I0720 20:10:00.816056 32162 net.cpp:127] Top shape: 50 50 108 108 (29160000)
I0720 20:10:00.816071 32162 layer_factory.hpp:74] Creating layer pool2
I0720 20:10:00.816082 32162 net.cpp:90] Creating Layer pool2
I0720 20:10:00.816089 32162 net.cpp:410] pool2 <- conv2
I0720 20:10:00.816099 32162 net.cpp:368] pool2 -> pool2
I0720 20:10:00.816110 32162 net.cpp:120] Setting up pool2
I0720 20:10:00.816419 32162 net.cpp:127] Top shape: 50 50 54 54 (7290000)
I0720 20:10:00.816445 32162 layer_factory.hpp:74] Creating layer ip1
I0720 20:10:00.816512 32162 net.cpp:90] Creating Layer ip1
I0720 20:10:00.816539 32162 net.cpp:410] ip1 <- pool2
I0720 20:10:00.816573 32162 net.cpp:368] ip1 -> ip1
I0720 20:10:00.816614 32162 net.cpp:120] Setting up ip1
I0720 20:10:01.408817 32162 net.cpp:127] Top shape: 50 500 (25000)
I0720 20:10:01.408854 32162 layer_factory.hpp:74] Creating layer relu1
I0720 20:10:01.408867 32162 net.cpp:90] Creating Layer relu1
I0720 20:10:01.408875 32162 net.cpp:410] relu1 <- ip1
I0720 20:10:01.408885 32162 net.cpp:357] relu1 -> ip1 (in-place)
I0720 20:10:01.408910 32162 net.cpp:120] Setting up relu1
I0720 20:10:01.409037 32162 net.cpp:127] Top shape: 50 500 (25000)
I0720 20:10:01.409044 32162 layer_factory.hpp:74] Creating layer ip2
I0720 20:10:01.409065 32162 net.cpp:90] Creating Layer ip2
I0720 20:10:01.409070 32162 net.cpp:410] ip2 <- ip1
I0720 20:10:01.409077 32162 net.cpp:368] ip2 -> ip2
I0720 20:10:01.409086 32162 net.cpp:120] Setting up ip2
I0720 20:10:01.409239 32162 net.cpp:127] Top shape: 50 34 (1700)
I0720 20:10:01.409245 32162 layer_factory.hpp:74] Creating layer feat
I0720 20:10:01.409255 32162 net.cpp:90] Creating Layer feat
I0720 20:10:01.409260 32162 net.cpp:410] feat <- ip2
I0720 20:10:01.409270 32162 net.cpp:368] feat -> feat
I0720 20:10:01.409277 32162 net.cpp:120] Setting up feat
I0720 20:10:01.409289 32162 net.cpp:127] Top shape: 50 2 (100)
I0720 20:10:01.409297 32162 layer_factory.hpp:74] Creating layer conv1_p
I0720 20:10:01.409309 32162 net.cpp:90] Creating Layer conv1_p
I0720 20:10:01.409314 32162 net.cpp:410] conv1_p <- data_p
I0720 20:10:01.409323 32162 net.cpp:368] conv1_p -> conv1_p
I0720 20:10:01.409332 32162 net.cpp:120] Setting up conv1_p
I0720 20:10:01.409821 32162 net.cpp:127] Top shape: 50 20 223 223 (49729000)
I0720 20:10:01.409828 32162 net.cpp:459] Sharing parameters 'conv1_w' owned by layer 'conv1', param index 0
I0720 20:10:01.409837 32162 net.cpp:459] Sharing parameters 'conv1_b' owned by layer 'conv1', param index 1
I0720 20:10:01.409843 32162 layer_factory.hpp:74] Creating layer pool1_p
I0720 20:10:01.409852 32162 net.cpp:90] Creating Layer pool1_p
I0720 20:10:01.409858 32162 net.cpp:410] pool1_p <- conv1_p
I0720 20:10:01.409865 32162 net.cpp:368] pool1_p -> pool1_p
I0720 20:10:01.409873 32162 net.cpp:120] Setting up pool1_p
I0720 20:10:01.409936 32162 net.cpp:127] Top shape: 50 20 112 112 (12544000)
I0720 20:10:01.409942 32162 layer_factory.hpp:74] Creating layer conv2_p
I0720 20:10:01.409950 32162 net.cpp:90] Creating Layer conv2_p
I0720 20:10:01.409956 32162 net.cpp:410] conv2_p <- pool1_p
I0720 20:10:01.409965 32162 net.cpp:368] conv2_p -> conv2_p
I0720 20:10:01.409972 32162 net.cpp:120] Setting up conv2_p
I0720 20:10:01.410501 32162 net.cpp:127] Top shape: 50 50 108 108 (29160000)
I0720 20:10:01.410508 32162 net.cpp:459] Sharing parameters 'conv2_w' owned by layer 'conv2', param index 0
I0720 20:10:01.410516 32162 net.cpp:459] Sharing parameters 'conv2_b' owned by layer 'conv2', param index 1
I0720 20:10:01.410522 32162 layer_factory.hpp:74] Creating layer pool2_p
I0720 20:10:01.410529 32162 net.cpp:90] Creating Layer pool2_p
I0720 20:10:01.410536 32162 net.cpp:410] pool2_p <- conv2_p
I0720 20:10:01.410542 32162 net.cpp:368] pool2_p -> pool2_p
I0720 20:10:01.410550 32162 net.cpp:120] Setting up pool2_p
I0720 20:10:01.410604 32162 net.cpp:127] Top shape: 50 50 54 54 (7290000)
I0720 20:10:01.410609 32162 layer_factory.hpp:74] Creating layer ip1_p
I0720 20:10:01.410617 32162 net.cpp:90] Creating Layer ip1_p
I0720 20:10:01.410624 32162 net.cpp:410] ip1_p <- pool2_p
I0720 20:10:01.410631 32162 net.cpp:368] ip1_p -> ip1_p
I0720 20:10:01.410640 32162 net.cpp:120] Setting up ip1_p
I0720 20:10:01.988345 32162 net.cpp:127] Top shape: 50 500 (25000)
I0720 20:10:01.988428 32162 net.cpp:459] Sharing parameters 'ip1_w' owned by layer 'ip1', param index 0
I0720 20:10:01.990257 32162 net.cpp:459] Sharing parameters 'ip1_b' owned by layer 'ip1', param index 1
I0720 20:10:01.990288 32162 layer_factory.hpp:74] Creating layer relu1_p
I0720 20:10:01.990303 32162 net.cpp:90] Creating Layer relu1_p
I0720 20:10:01.990311 32162 net.cpp:410] relu1_p <- ip1_p
I0720 20:10:01.990324 32162 net.cpp:357] relu1_p -> ip1_p (in-place)
I0720 20:10:01.990342 32162 net.cpp:120] Setting up relu1_p
I0720 20:10:01.990635 32162 net.cpp:127] Top shape: 50 500 (25000)
I0720 20:10:01.990648 32162 layer_factory.hpp:74] Creating layer ip2_p
I0720 20:10:01.990667 32162 net.cpp:90] Creating Layer ip2_p
I0720 20:10:01.990675 32162 net.cpp:410] ip2_p <- ip1_p
I0720 20:10:01.990686 32162 net.cpp:368] ip2_p -> ip2_p
I0720 20:10:01.990703 32162 net.cpp:120] Setting up ip2_p
I0720 20:10:01.990906 32162 net.cpp:127] Top shape: 50 34 (1700)
I0720 20:10:01.990932 32162 net.cpp:459] Sharing parameters 'ip2_w' owned by layer 'ip2', param index 0
I0720 20:10:01.990942 32162 net.cpp:459] Sharing parameters 'ip2_b' owned by layer 'ip2', param index 1
I0720 20:10:01.990949 32162 layer_factory.hpp:74] Creating layer feat_p
I0720 20:10:01.990960 32162 net.cpp:90] Creating Layer feat_p
I0720 20:10:01.990974 32162 net.cpp:410] feat_p <- ip2_p
I0720 20:10:01.990984 32162 net.cpp:368] feat_p -> feat_p
I0720 20:10:01.990996 32162 net.cpp:120] Setting up feat_p
I0720 20:10:01.991011 32162 net.cpp:127] Top shape: 50 2 (100)
I0720 20:10:01.991019 32162 net.cpp:459] Sharing parameters 'feat_w' owned by layer 'feat', param index 0
I0720 20:10:01.991026 32162 net.cpp:459] Sharing parameters 'feat_b' owned by layer 'feat', param index 1
I0720 20:10:01.991034 32162 layer_factory.hpp:74] Creating layer loss
I0720 20:10:01.991044 32162 net.cpp:90] Creating Layer loss
I0720 20:10:01.991051 32162 net.cpp:410] loss <- feat
…
