…
I0723 23:31:28.490275  7686 net.cpp:287] The NetState phase (0) differed from the phase (1) specified by a rule in layer pair_data
I0723 23:31:28.490773  7686 net.cpp:42] Initializing net from parameters: 
name: "siamese_cats_dogs"
state {
  phase: TRAIN
}
layer {
  name: "pair_data"
  type: "ImageData"
  top: "data"
  top: "data_p"
  top: "sim"
  include {
    phase: TRAIN
  }
  transform_param {
    scale: 0.00390625
    crop_size: 227
  }
  image_data_param {
    source: "/media/gavin/e2bcddc2-a2ea-4321-839e-29b2db8373dc/cats-dogs/train.txt"
    batch_size: 64
  }
}
layer {
  name: "conv1"
  type: "Convolution"
  bottom: "data"
  top: "conv1"
  param {
    name: "conv1_w"
    lr_mult: 1
    decay_mult: 1
  }
  param {
    name: "conv1_b"
    lr_mult: 2
    decay_mult: 0
  }
  convolution_param {
    num_output: 96
    kernel_size: 11
    stride: 4
    weight_filler {
      type: "gaussian"
      std: 0.01
    }
    bias_filler {
      type: "constant"
      value: 0
    }
  }
}
layer {
  name: "relu1"
  type: "ReLU"
  bottom: "conv1"
  top: "conv1"
}
layer {
  name: "pool1"
  type: "Pooling"
  bottom: "conv1"
  top: "pool1"
  pooling_param {
    pool: MAX
    kernel_size: 3
    stride: 2
  }
}
layer {
  name: "norm1"
  type: "LRN"
  bottom: "pool1"
  top: "norm1"
  lrn_param {
    local_size: 5
    alpha: 0.0001
    beta: 0.75
  }
}
layer {
  name: "conv2"
  type: "Convolution"
  bottom: "norm1"
  top: "conv2"
  param {
    name: "conv2_w"
    lr_mult: 1
    decay_mult: 1
  }
  param {
    name: "conv2_b"
    lr_mult: 2
    decay_mult: 0
  }
  convolution_param {
    num_output: 256
    pad: 2
    kernel_size: 5
    group: 2
    weight_filler {
      type: "gaussian"
      std: 0.01
    }
    bias_filler {
      type: "constant"
      value: 1
    }
  }
}
layer {
  name: "relu2"
  type: "ReLU"
  bottom: "conv2"
  top: "conv2"
}
layer {
  name: "pool2"
  type: "Pooling"
  bottom: "conv2"
  top: "pool2"
  pooling_param {
    pool: MAX
    kernel_size: 3
    stride: 2
  }
}
layer {
  name: "norm2"
  type: "LRN"
  bottom: "pool2"
  top: "norm2"
  lrn_param {
    local_size: 5
    alpha: 0.0001
    beta: 0.75
  }
}
layer {
  name: "conv3"
  type: "Convolution"
  bottom: "norm2"
  top: "conv3"
  param {
    name: "conv3_w"
    lr_mult: 1
    decay_mult: 1
  }
  param {
    name: "conv3_b"
    lr_mult: 2
    decay_mult: 0
  }
  convolution_param {
    num_output: 384
    pad: 1
    kernel_size: 3
    weight_filler {
      type: "gaussian"
      std: 0.01
    }
    bias_filler {
      type: "constant"
      value: 0
    }
  }
}
layer {
  name: "relu3"
  type: "ReLU"
  bottom: "conv3"
  top: "conv3"
}
layer {
  name: "conv4"
  type: "Convolution"
  bottom: "conv3"
  top: "conv4"
  param {
    name: "conv4_w"
    lr_mult: 1
    decay_mult: 1
  }
  param {
    name: "conv4_b"
    lr_mult: 2
    decay_mult: 0
  }
  convolution_param {
    num_output: 384
    pad: 1
    kernel_size: 3
    group: 2
    weight_filler {
      type: "gaussian"
      std: 0.01
    }
    bias_filler {
      type: "constant"
      value: 1
    }
  }
}
layer {
  name: "relu4"
  type: "ReLU"
  bottom: "conv4"
  top: "conv4"
}
layer {
  name: "conv5"
  type: "Convolution"
  bottom: "conv4"
  top: "conv5"
  param {
    name: "conv5_w"
    lr_mult: 1
    decay_mult: 1
  }
  param {
    name: "conv5_b"
    lr_mult: 2
    decay_mult: 0
  }
  convolution_param {
    num_output: 256
    pad: 1
    kernel_size: 3
    group: 2
    weight_filler {
      type: "gaussian"
      std: 0.01
    }
    bias_filler {
      type: "constant"
      value: 1
    }
  }
}
layer {
  name: "relu5"
  type: "ReLU"
  bottom: "conv5"
  top: "conv5"
}
layer {
  name: "pool5"
  type: "Pooling"
  bottom: "conv5"
  top: "pool5"
  pooling_param {
    pool: MAX
    kernel_size: 3
    stride: 2
  }
}
layer {
  name: "fc6"
  type: "InnerProduct"
  bottom: "pool5"
  top: "fc6"
  param {
    name: "fc6_w"
    lr_mult: 1
    decay_mult: 1
  }
  param {
    name: "fc6_b"
    lr_mult: 2
    decay_mult: 0
  }
  inner_product_param {
    num_output: 4096
    weight_filler {
      type: "gaussian"
      std: 0.005
    }
    bias_filler {
      type: "constant"
      value: 1
    }
  }
}
layer {
  name: "relu6"
  type: "ReLU"
  bottom: "fc6"
  top: "fc6"
}
layer {
  name: "drop6"
  type: "Dropout"
  bottom: "fc6"
  top: "fc6"
  dropout_param {
    dropout_ratio: 0.5
  }
}
layer {
  name: "fc7"
  type: "InnerProduct"
  bottom: "fc6"
  top: "fc7"
  param {
    name: "fc7_w"
    lr_mult: 1
    decay_mult: 1
  }
  param {
    name: "fc7_b"
    lr_mult: 2
    decay_mult: 0
  }
  inner_product_param {
    num_output: 4096
    weight_filler {
      type: "gaussian"
      std: 0.005
    }
    bias_filler {
      type: "constant"
      value: 1
    }
  }
}
layer {
  name: "relu7"
  type: "ReLU"
  bottom: "fc7"
  top: "fc7"
}
layer {
  name: "drop7"
  type: "Dropout"
  bottom: "fc7"
  top: "fc7"
  dropout_param {
    dropout_ratio: 0.5
  }
}
layer {
  name: "fc8_ft"
  type: "InnerProduct"
  bottom: "fc7"
  top: "fc8_ft"
  param {
    name: "fc8_w"
    lr_mult: 1
    decay_mult: 1
  }
  param {
    name: "fc8_b"
    lr_mult: 2
    decay_mult: 0
  }
  inner_product_param {
    num_output: 2
    weight_filler {
      type: "gaussian"
      std: 0.01
    }
    bias_filler {
      type: "constant"
      value: 0
    }
  }
}
layer {
  name: "conv1_p"
  type: "Convolution"
  bottom: "data_p"
  top: "conv1_p"
  param {
    name: "conv1_w"
    lr_mult: 1
    decay_mult: 1
  }
  param {
    name: "conv1_b"
    lr_mult: 2
    decay_mult: 0
  }
  convolution_param {
    num_output: 96
    kernel_size: 11
    stride: 4
    weight_filler {
      type: "gaussian"
      std: 0.01
    }
    bias_filler {
      type: "constant"
      value: 0
    }
  }
}
layer {
  name: "relu1_p"
  type: "ReLU"
  bottom: "conv1_p"
  top: "conv1_p"
}
layer {
  name: "pool1_p"
  type: "Pooling"
  bottom: "conv1_p"
  top: "pool1_p"
  pooling_param {
    pool: MAX
    kernel_size: 3
    stride: 2
  }
}
layer {
  name: "norm1_p"
  type: "LRN"
  bottom: "pool1_p"
  top: "norm1_p"
  lrn_param {
    local_size: 5
    alpha: 0.0001
    beta: 0.75
  }
}
layer {
  name: "conv2_p"
  type: "Convolution"
  bottom: "norm1_p"
  top: "conv2_p"
  param {
    name: "conv2_w"
    lr_mult: 1
    decay_mult: 1
  }
  param {
    name: "conv2_b"
    lr_mult: 2
    decay_mult: 0
  }
  convolution_param {
    num_output: 256
    pad: 2
    kernel_size: 5
    group: 2
    weight_filler {
      type: "gaussian"
      std: 0.01
    }
    bias_filler {
      type: "constant"
      value: 1
    }
  }
}
layer {
  name: "relu2_p"
  type: "ReLU"
  bottom: "conv2_p"
  top: "conv2_p"
}
layer {
  name: "pool2_p"
  type: "Pooling"
  bottom: "conv2_p"
  top: "pool2_p"
  pooling_param {
    pool: MAX
    kernel_size: 3
    stride: 2
  }
}
layer {
  name: "norm2_p"
  type: "LRN"
  bottom: "pool2_p"
  top: "norm2_p"
  lrn_param {
    local_size: 5
    alpha: 0.0001
    beta: 0.75
  }
}
layer {
  name: "conv3_p"
  type: "Convolution"
  bottom: "norm2_p"
  top: "conv3_p"
  param {
    name: "conv3_w"
    lr_mult: 1
    decay_mult: 1
  }
  param {
    name: "conv3_b"
    lr_mult: 2
    decay_mult: 0
  }
  convolution_param {
    num_output: 384
    pad: 1
    kernel_size: 3
    weight_filler {
      type: "gaussian"
      std: 0.01
    }
    bias_filler {
      type: "constant"
      value: 0
    }
  }
}
layer {
  name: "relu3_p"
  type: "ReLU"
  bottom: "conv3_p"
  top: "conv3_p"
}
layer {
  name: "conv4_p"
  type: "Convolution"
  bottom: "conv3_p"
  top: "conv4_p"
  param {
    name: "conv4_w"
    lr_mult: 1
    decay_mult: 1
  }
  param {
    name: "conv4_b"
    lr_mult: 2
    decay_mult: 0
  }
  convolution_param {
    num_output: 384
    pad: 1
    kernel_size: 3
    group: 2
    weight_filler {
      type: "gaussian"
      std: 0.01
    }
    bias_filler {
      type: "constant"
      value: 1
    }
  }
}
layer {
  name: "relu4_p"
  type: "ReLU"
  bottom: "conv4_p"
  top: "conv4_p"
}
layer {
  name: "conv5_p"
  type: "Convolution"
  bottom: "conv4_p"
  top: "conv5_p"
  param {
    name: "conv5_w"
    lr_mult: 1
    decay_mult: 1
  }
  param {
    name: "conv5_b"
    lr_mult: 2
    decay_mult: 0
  }
  convolution_param {
    num_output: 256
    pad: 1
    kernel_size: 3
    group: 2
    weight_filler {
      type: "gaussian"
      std: 0.01
    }
    bias_filler {
      type: "constant"
      value: 1
    }
  }
}
layer {
  name: "relu5_p"
  type: "ReLU"
  bottom: "conv5_p"
  top: "conv5_p"
}
layer {
  name: "pool5_p"
  type: "Pooling"
  bottom: "conv5_p"
  top: "pool5_p"
  pooling_param {
    pool: MAX
    kernel_size: 3
    stride: 2
  }
}
layer {
  name: "fc6_p"
  type: "InnerProduct"
  bottom: "pool5_p"
  top: "fc6_p"
  param {
    name: "fc6_w"
    lr_mult: 1
    decay_mult: 1
  }
  param {
    name: "fc7_b"
    lr_mult: 2
    decay_mult: 0
  }
  inner_product_param {
    num_output: 4096
    weight_filler {
      type: "gaussian"
      std: 0.005
    }
    bias_filler {
      type: "constant"
      value: 1
    }
  }
}
layer {
  name: "relu6_p"
  type: "ReLU"
  bottom: "fc6_p"
  top: "fc6_p"
}
layer {
  name: "drop6_p"
  type: "Dropout"
  bottom: "fc6_p"
  top: "fc6_p"
  dropout_param {
    dropout_ratio: 0.5
  }
}
layer {
  name: "fc7_p"
  type: "InnerProduct"
  bottom: "fc6_p"
  top: "fc7_p"
  param {
    name: "fc7_w"
    lr_mult: 1
    decay_mult: 1
  }
  param {
    name: "fc7_b"
    lr_mult: 2
    decay_mult: 0
  }
  inner_product_param {
    num_output: 4096
    weight_filler {
      type: "gaussian"
      std: 0.005
    }
    bias_filler {
      type: "constant"
      value: 1
    }
  }
}
layer {
  name: "relu7_p"
  type: "ReLU"
  bottom: "fc7_p"
  top: "fc7_p"
}
layer {
  name: "drop7_p"
  type: "Dropout"
  bottom: "fc7_p"
  top: "fc7_p"
  dropout_param {
    dropout_ratio: 0.5
  }
}
layer {
  name: "fc8_p"
  type: "InnerProduct"
  bottom: "fc7_p"
  top: "fc8_p"
  param {
    name: "fc8_w"
    lr_mult: 1
    decay_mult: 1
  }
  param {
    name: "fc8_b"
    lr_mult: 2
    decay_mult: 0
  }
  inner_product_param {
    num_output: 2
    weight_filler {
      type: "gaussian"
      std: 0.01
    }
    bias_filler {
      type: "constant"
      value: 0
    }
  }
}
layer {
  name: "feat"
  type: "InnerProduct"
  bottom: "fc8_ft"
  top: "feat"
  param {
    name: "feat_w"
    lr_mult: 10
  }
  param {
    name: "feat_b"
    lr_mult: 20
  }
  inner_product_param {
    num_output: 2
    weight_filler {
      type: "xavier"
    }
    bias_filler {
      type: "constant"
    }
  }
}
layer {
  name: "feat_p"
  type: "InnerProduct"
  bottom: "fc8_p"
  top: "feat_p"
  param {
    name: "feat_w"
    lr_mult: 10
  }
  param {
    name: "feat_b"
    lr_mult: 20
  }
  inner_product_param {
    num_output: 2
    weight_filler {
      type: "xavier"
    }
    bias_filler {
      type: "constant"
    }
  }
}
layer {
  name: "loss"
  type: "ContrastiveLoss"
  bottom: "feat"
  bottom: "feat_p"
  bottom: "sim"
  top: "loss"
  contrastive_loss_param {
    margin: 1
  }
}
I0723 23:31:28.491035  7686 layer_factory.hpp:74] Creating layer pair_data
I0723 23:31:28.491057  7686 net.cpp:90] Creating Layer pair_data
I0723 23:31:28.491071  7686 net.cpp:368] pair_data -> data
I0723 23:31:28.491103  7686 net.cpp:368] pair_data -> data_p
I0723 23:31:28.491117  7686 net.cpp:368] pair_data -> sim
I0723 23:31:28.491129  7686 net.cpp:120] Setting up pair_data
I0723 23:31:28.491449  7686 image_data_layer.cpp:64] Opening file '/media/gavin/e2bcddc2-a2ea-4321-839e-29b2db8373dc/cats-dogs/train.txt'
I0723 23:31:28.491498  7686 image_data_layer.cpp:77] Input set size: 2
I0723 23:31:28.591307  7686 image_data_layer.cpp:109] A total of 60000 images.
I0723 23:31:28.592138  7686 image_data_layer.cpp:133] output data size: 64,3,227,227
I0723 23:31:28.592643  7686 image_data_layer.cpp:133] output data size: 64,3,227,227
I0723 23:31:28.615823  7686 net.cpp:127] Top shape: 64 3 227 227 (9893568)
I0723 23:31:28.615878  7686 net.cpp:127] Top shape: 64 3 227 227 (9893568)
I0723 23:31:28.615888  7686 net.cpp:127] Top shape: 64 (64)
I0723 23:31:28.615900  7686 layer_factory.hpp:74] Creating layer conv1
I0723 23:31:28.615984  7686 net.cpp:90] Creating Layer conv1
I0723 23:31:28.615996  7686 net.cpp:410] conv1 <- data
I0723 23:31:28.616015  7686 net.cpp:368] conv1 -> conv1
I0723 23:31:28.616034  7686 net.cpp:120] Setting up conv1
I0723 23:31:28.698889  7686 net.cpp:127] Top shape: 64 96 55 55 (18585600)
I0723 23:31:28.698951  7686 layer_factory.hpp:74] Creating layer relu1
I0723 23:31:28.698971  7686 net.cpp:90] Creating Layer relu1
I0723 23:31:28.698978  7686 net.cpp:410] relu1 <- conv1
I0723 23:31:28.698990  7686 net.cpp:357] relu1 -> conv1 (in-place)
I0723 23:31:28.699002  7686 net.cpp:120] Setting up relu1
I0723 23:31:28.699192  7686 net.cpp:127] Top shape: 64 96 55 55 (18585600)
I0723 23:31:28.699203  7686 layer_factory.hpp:74] Creating layer pool1
I0723 23:31:28.699218  7686 net.cpp:90] Creating Layer pool1
I0723 23:31:28.699224  7686 net.cpp:410] pool1 <- conv1
I0723 23:31:28.699234  7686 net.cpp:368] pool1 -> pool1
I0723 23:31:28.699244  7686 net.cpp:120] Setting up pool1
I0723 23:31:28.699321  7686 net.cpp:127] Top shape: 64 96 27 27 (4478976)
I0723 23:31:28.699331  7686 layer_factory.hpp:74] Creating layer norm1
I0723 23:31:28.699344  7686 net.cpp:90] Creating Layer norm1
I0723 23:31:28.699352  7686 net.cpp:410] norm1 <- pool1
I0723 23:31:28.699360  7686 net.cpp:368] norm1 -> norm1
I0723 23:31:28.699372  7686 net.cpp:120] Setting up norm1
I0723 23:31:28.699383  7686 net.cpp:127] Top shape: 64 96 27 27 (4478976)
I0723 23:31:28.699390  7686 layer_factory.hpp:74] Creating layer conv2
I0723 23:31:28.699404  7686 net.cpp:90] Creating Layer conv2
I0723 23:31:28.699410  7686 net.cpp:410] conv2 <- norm1
I0723 23:31:28.699420  7686 net.cpp:368] conv2 -> conv2
I0723 23:31:28.699431  7686 net.cpp:120] Setting up conv2
I0723 23:31:28.713874  7686 net.cpp:127] Top shape: 64 256 27 27 (11943936)
I0723 23:31:28.713901  7686 layer_factory.hpp:74] Creating layer relu2
I0723 23:31:28.713912  7686 net.cpp:90] Creating Layer relu2
I0723 23:31:28.713919  7686 net.cpp:410] relu2 <- conv2
I0723 23:31:28.713929  7686 net.cpp:357] relu2 -> conv2 (in-place)
I0723 23:31:28.713938  7686 net.cpp:120] Setting up relu2
I0723 23:31:28.713995  7686 net.cpp:127] Top shape: 64 256 27 27 (11943936)
I0723 23:31:28.714004  7686 layer_factory.hpp:74] Creating layer pool2
I0723 23:31:28.714012  7686 net.cpp:90] Creating Layer pool2
I0723 23:31:28.714020  7686 net.cpp:410] pool2 <- conv2
I0723 23:31:28.714030  7686 net.cpp:368] pool2 -> pool2
I0723 23:31:28.714040  7686 net.cpp:120] Setting up pool2
I0723 23:31:28.714200  7686 net.cpp:127] Top shape: 64 256 13 13 (2768896)
I0723 23:31:28.714216  7686 layer_factory.hpp:74] Creating layer norm2
I0723 23:31:28.714231  7686 net.cpp:90] Creating Layer norm2
I0723 23:31:28.714237  7686 net.cpp:410] norm2 <- pool2
I0723 23:31:28.714249  7686 net.cpp:368] norm2 -> norm2
I0723 23:31:28.714260  7686 net.cpp:120] Setting up norm2
I0723 23:31:28.714272  7686 net.cpp:127] Top shape: 64 256 13 13 (2768896)
I0723 23:31:28.714278  7686 layer_factory.hpp:74] Creating layer conv3
I0723 23:31:28.714290  7686 net.cpp:90] Creating Layer conv3
I0723 23:31:28.714298  7686 net.cpp:410] conv3 <- norm2
I0723 23:31:28.714308  7686 net.cpp:368] conv3 -> conv3
I0723 23:31:28.714318  7686 net.cpp:120] Setting up conv3
I0723 23:31:28.755645  7686 net.cpp:127] Top shape: 64 384 13 13 (4153344)
I0723 23:31:28.755702  7686 layer_factory.hpp:74] Creating layer relu3
I0723 23:31:28.755718  7686 net.cpp:90] Creating Layer relu3
I0723 23:31:28.755734  7686 net.cpp:410] relu3 <- conv3
I0723 23:31:28.755746  7686 net.cpp:357] relu3 -> conv3 (in-place)
I0723 23:31:28.755758  7686 net.cpp:120] Setting up relu3
I0723 23:31:28.755827  7686 net.cpp:127] Top shape: 64 384 13 13 (4153344)
I0723 23:31:28.755847  7686 layer_factory.hpp:74] Creating layer conv4
I0723 23:31:28.755861  7686 net.cpp:90] Creating Layer conv4
I0723 23:31:28.755868  7686 net.cpp:410] conv4 <- conv3
I0723 23:31:28.755878  7686 net.cpp:368] conv4 -> conv4
I0723 23:31:28.755888  7686 net.cpp:120] Setting up conv4
I0723 23:31:28.785977  7686 net.cpp:127] Top shape: 64 384 13 13 (4153344)
I0723 23:31:28.786025  7686 layer_factory.hpp:74] Creating layer relu4
I0723 23:31:28.786038  7686 net.cpp:90] Creating Layer relu4
I0723 23:31:28.786046  7686 net.cpp:410] relu4 <- conv4
I0723 23:31:28.786065  7686 net.cpp:357] relu4 -> conv4 (in-place)
I0723 23:31:28.786075  7686 net.cpp:120] Setting up relu4
I0723 23:31:28.786133  7686 net.cpp:127] Top shape: 64 384 13 13 (4153344)
I0723 23:31:28.786140  7686 layer_factory.hpp:74] Creating layer conv5
I0723 23:31:28.786155  7686 net.cpp:90] Creating Layer conv5
I0723 23:31:28.786162  7686 net.cpp:410] conv5 <- conv4
I0723 23:31:28.786172  7686 net.cpp:368] conv5 -> conv5
I0723 23:31:28.786182  7686 net.cpp:120] Setting up conv5
I0723 23:31:28.806787  7686 net.cpp:127] Top shape: 64 256 13 13 (2768896)
I0723 23:31:28.806838  7686 layer_factory.hpp:74] Creating layer relu5
I0723 23:31:28.806852  7686 net.cpp:90] Creating Layer relu5
I0723 23:31:28.806859  7686 net.cpp:410] relu5 <- conv5
I0723 23:31:28.806880  7686 net.cpp:357] relu5 -> conv5 (in-place)
I0723 23:31:28.806891  7686 net.cpp:120] Setting up relu5
I0723 23:31:28.806948  7686 net.cpp:127] Top shape: 64 256 13 13 (2768896)
I0723 23:31:28.806956  7686 layer_factory.hpp:74] Creating layer pool5
I0723 23:31:28.806967  7686 net.cpp:90] Creating Layer pool5
I0723 23:31:28.806973  7686 net.cpp:410] pool5 <- conv5
I0723 23:31:28.806982  7686 net.cpp:368] pool5 -> pool5
I0723 23:31:28.806994  7686 net.cpp:120] Setting up pool5
I0723 23:31:28.807157  7686 net.cpp:127] Top shape: 64 256 6 6 (589824)
I0723 23:31:28.807168  7686 layer_factory.hpp:74] Creating layer fc6
I0723 23:31:28.807189  7686 net.cpp:90] Creating Layer fc6
I0723 23:31:28.807196  7686 net.cpp:410] fc6 <- pool5
I0723 23:31:28.807207  7686 net.cpp:368] fc6 -> fc6
I0723 23:31:28.807219  7686 net.cpp:120] Setting up fc6
I0723 23:31:30.440213  7686 net.cpp:127] Top shape: 64 4096 (262144)
I0723 23:31:30.440268  7686 layer_factory.hpp:74] Creating layer relu6
I0723 23:31:30.440282  7686 net.cpp:90] Creating Layer relu6
I0723 23:31:30.440290  7686 net.cpp:410] relu6 <- fc6
I0723 23:31:30.440301  7686 net.cpp:357] relu6 -> fc6 (in-place)
I0723 23:31:30.440312  7686 net.cpp:120] Setting up relu6
I0723 23:31:30.440402  7686 net.cpp:127] Top shape: 64 4096 (262144)
I0723 23:31:30.440409  7686 layer_factory.hpp:74] Creating layer drop6
I0723 23:31:30.440425  7686 net.cpp:90] Creating Layer drop6
I0723 23:31:30.440433  7686 net.cpp:410] drop6 <- fc6
I0723 23:31:30.440440  7686 net.cpp:357] drop6 -> fc6 (in-place)
I0723 23:31:30.440451  7686 net.cpp:120] Setting up drop6
I0723 23:31:30.440464  7686 net.cpp:127] Top shape: 64 4096 (262144)
I0723 23:31:30.440470  7686 layer_factory.hpp:74] Creating layer fc7
I0723 23:31:30.440481  7686 net.cpp:90] Creating Layer fc7
I0723 23:31:30.440487  7686 net.cpp:410] fc7 <- fc6
I0723 23:31:30.440496  7686 net.cpp:368] fc7 -> fc7
I0723 23:31:30.440506  7686 net.cpp:120] Setting up fc7
I0723 23:31:31.163884  7686 net.cpp:127] Top shape: 64 4096 (262144)
I0723 23:31:31.163944  7686 layer_factory.hpp:74] Creating layer relu7
I0723 23:31:31.163959  7686 net.cpp:90] Creating Layer relu7
I0723 23:31:31.163979  7686 net.cpp:410] relu7 <- fc7
I0723 23:31:31.163990  7686 net.cpp:357] relu7 -> fc7 (in-place)
I0723 23:31:31.164001  7686 net.cpp:120] Setting up relu7
I0723 23:31:31.164093  7686 net.cpp:127] Top shape: 64 4096 (262144)
I0723 23:31:31.164100  7686 layer_factory.hpp:74] Creating layer drop7
I0723 23:31:31.164110  7686 net.cpp:90] Creating Layer drop7
I0723 23:31:31.164118  7686 net.cpp:410] drop7 <- fc7
I0723 23:31:31.164126  7686 net.cpp:357] drop7 -> fc7 (in-place)
I0723 23:31:31.164151  7686 net.cpp:120] Setting up drop7
I0723 23:31:31.164173  7686 net.cpp:127] Top shape: 64 4096 (262144)
I0723 23:31:31.164180  7686 layer_factory.hpp:74] Creating layer fc8_ft
I0723 23:31:31.164194  7686 net.cpp:90] Creating Layer fc8_ft
I0723 23:31:31.164201  7686 net.cpp:410] fc8_ft <- fc7
I0723 23:31:31.164211  7686 net.cpp:368] fc8_ft -> fc8_ft
I0723 23:31:31.164222  7686 net.cpp:120] Setting up fc8_ft
I0723 23:31:31.164613  7686 net.cpp:127] Top shape: 64 2 (128)
I0723 23:31:31.164624  7686 layer_factory.hpp:74] Creating layer conv1_p
I0723 23:31:31.164636  7686 net.cpp:90] Creating Layer conv1_p
I0723 23:31:31.164644  7686 net.cpp:410] conv1_p <- data_p
I0723 23:31:31.164654  7686 net.cpp:368] conv1_p -> conv1_p
I0723 23:31:31.164667  7686 net.cpp:120] Setting up conv1_p
I0723 23:31:31.166561  7686 net.cpp:127] Top shape: 64 96 55 55 (18585600)
I0723 23:31:31.166595  7686 net.cpp:459] Sharing parameters 'conv1_w' owned by layer 'conv1', param index 0
I0723 23:31:31.166611  7686 net.cpp:459] Sharing parameters 'conv1_b' owned by layer 'conv1', param index 1
I0723 23:31:31.166623  7686 layer_factory.hpp:74] Creating layer relu1_p
I0723 23:31:31.166640  7686 net.cpp:90] Creating Layer relu1_p
I0723 23:31:31.166646  7686 net.cpp:410] relu1_p <- conv1_p
I0723 23:31:31.166654  7686 net.cpp:357] relu1_p -> conv1_p (in-place)
I0723 23:31:31.166664  7686 net.cpp:120] Setting up relu1_p
I0723 23:31:31.166720  7686 net.cpp:127] Top shape: 64 96 55 55 (18585600)
I0723 23:31:31.166728  7686 layer_factory.hpp:74] Creating layer pool1_p
I0723 23:31:31.166739  7686 net.cpp:90] Creating Layer pool1_p
I0723 23:31:31.166746  7686 net.cpp:410] pool1_p <- conv1_p
I0723 23:31:31.166755  7686 net.cpp:368] pool1_p -> pool1_p
I0723 23:31:31.166764  7686 net.cpp:120] Setting up pool1_p
I0723 23:31:31.166925  7686 net.cpp:127] Top shape: 64 96 27 27 (4478976)
I0723 23:31:31.166936  7686 layer_factory.hpp:74] Creating layer norm1_p
I0723 23:31:31.166946  7686 net.cpp:90] Creating Layer norm1_p
I0723 23:31:31.166954  7686 net.cpp:410] norm1_p <- pool1_p
I0723 23:31:31.166962  7686 net.cpp:368] norm1_p -> norm1_p
I0723 23:31:31.166972  7686 net.cpp:120] Setting up norm1_p
I0723 23:31:31.166983  7686 net.cpp:127] Top shape: 64 96 27 27 (4478976)
I0723 23:31:31.166990  7686 layer_factory.hpp:74] Creating layer conv2_p
I0723 23:31:31.167001  7686 net.cpp:90] Creating Layer conv2_p
I0723 23:31:31.167008  7686 net.cpp:410] conv2_p <- norm1_p
I0723 23:31:31.167018  7686 net.cpp:368] conv2_p -> conv2_p
I0723 23:31:31.167028  7686 net.cpp:120] Setting up conv2_p
I0723 23:31:31.181289  7686 net.cpp:127] Top shape: 64 256 27 27 (11943936)
I0723 23:31:31.181318  7686 net.cpp:459] Sharing parameters 'conv2_w' owned by layer 'conv2', param index 0
I0723 23:31:31.181329  7686 net.cpp:459] Sharing parameters 'conv2_b' owned by layer 'conv2', param index 1
I0723 23:31:31.181335  7686 layer_factory.hpp:74] Creating layer relu2_p
I0723 23:31:31.181344  7686 net.cpp:90] Creating Layer relu2_p
I0723 23:31:31.181351  7686 net.cpp:410] relu2_p <- conv2_p
I0723 23:31:31.181360  7686 net.cpp:357] relu2_p -> conv2_p (in-place)
I0723 23:31:31.181370  7686 net.cpp:120] Setting up relu2_p
I0723 23:31:31.181421  7686 net.cpp:127] Top shape: 64 256 27 27 (11943936)
I0723 23:31:31.181427  7686 layer_factory.hpp:74] Creating layer pool2_p
I0723 23:31:31.181435  7686 net.cpp:90] Creating Layer pool2_p
I0723 23:31:31.181442  7686 net.cpp:410] pool2_p <- conv2_p
I0723 23:31:31.181450  7686 net.cpp:368] pool2_p -> pool2_p
I0723 23:31:31.181459  7686 net.cpp:120] Setting up pool2_p
I0723 23:31:31.181514  7686 net.cpp:127] Top shape: 64 256 13 13 (2768896)
I0723 23:31:31.181522  7686 layer_factory.hpp:74] Creating layer norm2_p
I0723 23:31:31.181530  7686 net.cpp:90] Creating Layer norm2_p
I0723 23:31:31.181536  7686 net.cpp:410] norm2_p <- pool2_p
I0723 23:31:31.181545  7686 net.cpp:368] norm2_p -> norm2_p
I0723 23:31:31.181555  7686 net.cpp:120] Setting up norm2_p
I0723 23:31:31.181565  7686 net.cpp:127] Top shape: 64 256 13 13 (2768896)
I0723 23:31:31.181576  7686 layer_factory.hpp:74] Creating layer conv3_p
I0723 23:31:31.181596  7686 net.cpp:90] Creating Layer conv3_p
I0723 23:31:31.181602  7686 net.cpp:410] conv3_p <- norm2_p
I0723 23:31:31.181610  7686 net.cpp:368] conv3_p -> conv3_p
I0723 23:31:31.181622  7686 net.cpp:120] Setting up conv3_p
I0723 23:31:31.220955  7686 net.cpp:127] Top shape: 64 384 13 13 (4153344)
I0723 23:31:31.220998  7686 net.cpp:459] Sharing parameters 'conv3_w' owned by layer 'conv3', param index 0
I0723 23:31:31.221256  7686 net.cpp:459] Sharing parameters 'conv3_b' owned by layer 'conv3', param index 1
I0723 23:31:31.221267  7686 layer_factory.hpp:74] Creating layer relu3_p
I0723 23:31:31.221287  7686 net.cpp:90] Creating Layer relu3_p
I0723 23:31:31.221295  7686 net.cpp:410] relu3_p <- conv3_p
I0723 23:31:31.221305  7686 net.cpp:357] relu3_p -> conv3_p (in-place)
I0723 23:31:31.221315  7686 net.cpp:120] Setting up relu3_p
I0723 23:31:31.221370  7686 net.cpp:127] Top shape: 64 384 13 13 (4153344)
I0723 23:31:31.221381  7686 layer_factory.hpp:74] Creating layer conv4_p
I0723 23:31:31.221393  7686 net.cpp:90] Creating Layer conv4_p
I0723 23:31:31.221400  7686 net.cpp:410] conv4_p <- conv3_p
I0723 23:31:31.221410  7686 net.cpp:368] conv4_p -> conv4_p
I0723 23:31:31.221420  7686 net.cpp:120] Setting up conv4_p
I0723 23:31:31.250766  7686 net.cpp:127] Top shape: 64 384 13 13 (4153344)
I0723 23:31:31.250797  7686 net.cpp:459] Sharing parameters 'conv4_w' owned by layer 'conv4', param index 0
I0723 23:31:31.250809  7686 net.cpp:459] Sharing parameters 'conv4_b' owned by layer 'conv4', param index 1
I0723 23:31:31.250816  7686 layer_factory.hpp:74] Creating layer relu4_p
I0723 23:31:31.250826  7686 net.cpp:90] Creating Layer relu4_p
I0723 23:31:31.250833  7686 net.cpp:410] relu4_p <- conv4_p
I0723 23:31:31.250841  7686 net.cpp:357] relu4_p -> conv4_p (in-place)
I0723 23:31:31.250850  7686 net.cpp:120] Setting up relu4_p
I0723 23:31:31.250999  7686 net.cpp:127] Top shape: 64 384 13 13 (4153344)
I0723 23:31:31.251010  7686 layer_factory.hpp:74] Creating layer conv5_p
I0723 23:31:31.251021  7686 net.cpp:90] Creating Layer conv5_p
I0723 23:31:31.251029  7686 net.cpp:410] conv5_p <- conv4_p
I0723 23:31:31.251039  7686 net.cpp:368] conv5_p -> conv5_p
I0723 23:31:31.251049  7686 net.cpp:120] Setting up conv5_p
I0723 23:31:31.270123  7686 net.cpp:127] Top shape: 64 256 13 13 (2768896)
I0723 23:31:31.270149  7686 net.cpp:459] Sharing parameters 'conv5_w' owned by layer 'conv5', param index 0
I0723 23:31:31.270161  7686 net.cpp:459] Sharing parameters 'conv5_b' owned by layer 'conv5', param index 1
I0723 23:31:31.270169  7686 layer_factory.hpp:74] Creating layer relu5_p
I0723 23:31:31.270177  7686 net.cpp:90] Creating Layer relu5_p
I0723 23:31:31.270184  7686 net.cpp:410] relu5_p <- conv5_p
I0723 23:31:31.270194  7686 net.cpp:357] relu5_p -> conv5_p (in-place)
I0723 23:31:31.270202  7686 net.cpp:120] Setting up relu5_p
I0723 23:31:31.270259  7686 net.cpp:127] Top shape: 64 256 13 13 (2768896)
I0723 23:31:31.270267  7686 layer_factory.hpp:74] Creating layer pool5_p
I0723 23:31:31.270277  7686 net.cpp:90] Creating Layer pool5_p
I0723 23:31:31.270282  7686 net.cpp:410] pool5_p <- conv5_p
I0723 23:31:31.270292  7686 net.cpp:368] pool5_p -> pool5_p
I0723 23:31:31.270300  7686 net.cpp:120] Setting up pool5_p
I0723 23:31:31.270354  7686 net.cpp:127] Top shape: 64 256 6 6 (589824)
I0723 23:31:31.270361  7686 layer_factory.hpp:74] Creating layer fc6_p
I0723 23:31:31.270372  7686 net.cpp:90] Creating Layer fc6_p
I0723 23:31:31.270378  7686 net.cpp:410] fc6_p <- pool5_p
I0723 23:31:31.270387  7686 net.cpp:368] fc6_p -> fc6_p
I0723 23:31:31.270397  7686 net.cpp:120] Setting up fc6_p
I0723 23:31:32.893396  7686 net.cpp:127] Top shape: 64 4096 (262144)
I0723 23:31:32.893457  7686 net.cpp:459] Sharing parameters 'fc6_w' owned by layer 'fc6', param index 0
I0723 23:31:32.894599  7686 net.cpp:459] Sharing parameters 'fc7_b' owned by layer 'fc7', param index 1
I0723 23:31:32.894629  7686 layer_factory.hpp:74] Creating layer relu6_p
I0723 23:31:32.894645  7686 net.cpp:90] Creating Layer relu6_p
I0723 23:31:32.894666  7686 net.cpp:410] relu6_p <- fc6_p
I0723 23:31:32.894688  7686 net.cpp:357] relu6_p -> fc6_p (in-place)
I0723 23:31:32.894708  7686 net.cpp:120] Setting up relu6_p
I0723 23:31:32.894979  7686 net.cpp:127] Top shape: 64 4096 (262144)
I0723 23:31:32.894994  7686 layer_factory.hpp:74] Creating layer drop6_p
I0723 23:31:32.895009  7686 net.cpp:90] Creating Layer drop6_p
I0723 23:31:32.895018  7686 net.cpp:410] drop6_p <- fc6_p
I0723 23:31:32.895030  7686 net.cpp:357] drop6_p -> fc6_p (in-place)
I0723 23:31:32.895040  7686 net.cpp:120] Setting up drop6_p
I0723 23:31:32.895051  7686 net.cpp:127] Top shape: 64 4096 (262144)
I0723 23:31:32.895063  7686 layer_factory.hpp:74] Creating layer fc7_p
I0723 23:31:32.895076  7686 net.cpp:90] Creating Layer fc7_p
I0723 23:31:32.895084  7686 net.cpp:410] fc7_p <- fc6_p
I0723 23:31:32.895099  7686 net.cpp:368] fc7_p -> fc7_p
I0723 23:31:32.895112  7686 net.cpp:120] Setting up fc7_p
I0723 23:31:33.613184  7686 net.cpp:127] Top shape: 64 4096 (262144)
I0723 23:31:33.613257  7686 net.cpp:459] Sharing parameters 'fc7_w' owned by layer 'fc7', param index 0
I0723 23:31:33.613894  7686 net.cpp:459] Sharing parameters 'fc7_b' owned by layer 'fc7', param index 1
I0723 23:31:33.613916  7686 layer_factory.hpp:74] Creating layer relu7_p
I0723 23:31:33.613934  7686 net.cpp:90] Creating Layer relu7_p
I0723 23:31:33.613945  7686 net.cpp:410] relu7_p <- fc7_p
I0723 23:31:33.613957  7686 net.cpp:357] relu7_p -> fc7_p (in-place)
I0723 23:31:33.613976  7686 net.cpp:120] Setting up relu7_p
I0723 23:31:33.614075  7686 net.cpp:127] Top shape: 64 4096 (262144)
I0723 23:31:33.614087  7686 layer_factory.hpp:74] Creating layer drop7_p
I0723 23:31:33.614099  7686 net.cpp:90] Creating Layer drop7_p
I0723 23:31:33.614107  7686 net.cpp:410] drop7_p <- fc7_p
I0723 23:31:33.614117  7686 net.cpp:357] drop7_p -> fc7_p (in-place)
I0723 23:31:33.614127  7686 net.cpp:120] Setting up drop7_p
I0723 23:31:33.614140  7686 net.cpp:127] Top shape: 64 4096 (262144)
I0723 23:31:33.614147  7686 layer_factory.hpp:74] Creating layer fc8_p
I0723 23:31:33.614161  7686 net.cpp:90] Creating Layer fc8_p
I0723 23:31:33.614172  7686 net.cpp:410] fc8_p <- fc7_p
I0723 23:31:33.614182  7686 net.cpp:368] fc8_p -> fc8_p
I0723 23:31:33.614197  7686 net.cpp:120] Setting up fc8_p
I0723 23:31:33.614609  7686 net.cpp:127] Top shape: 64 2 (128)
I0723 23:31:33.614624  7686 net.cpp:459] Sharing parameters 'fc8_w' owned by layer 'fc8_ft', param index 0
I0723 23:31:33.614634  7686 net.cpp:459] Sharing parameters 'fc8_b' owned by layer 'fc8_ft', param index 1
I0723 23:31:33.614645  7686 layer_factory.hpp:74] Creating layer feat
I0723 23:31:33.614655  7686 net.cpp:90] Creating Layer feat
I0723 23:31:33.614663  7686 net.cpp:410] feat <- fc8_ft
I0723 23:31:33.614675  7686 net.cpp:368] feat -> feat
I0723 23:31:33.614691  7686 net.cpp:120] Setting up feat
I0723 23:31:33.614723  7686 net.cpp:127] Top shape: 64 2 (128)
I0723 23:31:33.614745  7686 layer_factory.hpp:74] Creating layer feat_p
I0723 23:31:33.614759  7686 net.cpp:90] Creating Layer feat_p
I0723 23:31:33.614770  7686 net.cpp:410] feat_p <- fc8_p
I0723 23:31:33.614780  7686 net.cpp:368] feat_p -> feat_p
I0723 23:31:33.614791  7686 net.cpp:120] Setting up feat_p
I0723 23:31:33.614805  7686 net.cpp:127] Top shape: 64 2 (128)
I0723 23:31:33.614817  7686 net.cpp:459] Sharing parameters 'feat_w' owned by layer 'feat', param index 0
I0723 23:31:33.614830  7686 net.cpp:459] Sharing parameters 'feat_b' owned by layer 'feat', param index 1
I0723 23:31:33.614837  7686 layer_factory.hpp:74] Creating layer loss
I0723 23:31:33.614851  7686 net.cpp:90] Creating Layer loss
I0723 23:31:33.614859  7686 net.cpp:410] loss <- feat
…
