…
I0722 23:58:47.474223 32749 net.cpp:287] The NetState phase (0) differed from the phase (1) specified by a rule in layer pair_data
I0722 23:58:47.474673 32749 net.cpp:42] Initializing net from parameters: 
name: "siamese_cats_dogs"
state {
  phase: TRAIN
}
layer {
  name: "pair_data"
  type: "ImageData"
  top: "data"
  top: "data_p"
  top: "sim"
  include {
    phase: TRAIN
  }
  transform_param {
    scale: 0.00390625
  }
  image_data_param {
    source: "/media/gavin/e2bcddc2-a2ea-4321-839e-29b2db8373dc/cats-dogs/train.txt"
    batch_size: 32
  }
}
layer {
  name: "conv1"
  type: "Convolution"
  bottom: "data"
  top: "conv1"
  param {
    name: "conv1_w"
    lr_mult: 1
    decay_mult: 1
  }
  param {
    name: "conv1_b"
    lr_mult: 2
    decay_mult: 0
  }
  convolution_param {
    num_output: 96
    kernel_size: 11
    stride: 4
    weight_filler {
      type: "gaussian"
      std: 0.01
    }
    bias_filler {
      type: "constant"
      value: 0
    }
  }
}
layer {
  name: "relu1"
  type: "ReLU"
  bottom: "conv1"
  top: "conv1"
}
layer {
  name: "pool1"
  type: "Pooling"
  bottom: "conv1"
  top: "pool1"
  pooling_param {
    pool: MAX
    kernel_size: 3
    stride: 2
  }
}
layer {
  name: "norm1"
  type: "LRN"
  bottom: "pool1"
  top: "norm1"
  lrn_param {
    local_size: 5
    alpha: 0.0001
    beta: 0.75
  }
}
layer {
  name: "conv2"
  type: "Convolution"
  bottom: "norm1"
  top: "conv2"
  param {
    name: "conv2_w"
    lr_mult: 1
    decay_mult: 1
  }
  param {
    name: "conv2_b"
    lr_mult: 2
    decay_mult: 0
  }
  convolution_param {
    num_output: 256
    pad: 2
    kernel_size: 5
    group: 2
    weight_filler {
      type: "gaussian"
      std: 0.01
    }
    bias_filler {
      type: "constant"
      value: 1
    }
  }
}
layer {
  name: "relu2"
  type: "ReLU"
  bottom: "conv2"
  top: "conv2"
}
layer {
  name: "pool2"
  type: "Pooling"
  bottom: "conv2"
  top: "pool2"
  pooling_param {
    pool: MAX
    kernel_size: 3
    stride: 2
  }
}
layer {
  name: "norm2"
  type: "LRN"
  bottom: "pool2"
  top: "norm2"
  lrn_param {
    local_size: 5
    alpha: 0.0001
    beta: 0.75
  }
}
layer {
  name: "conv3"
  type: "Convolution"
  bottom: "norm2"
  top: "conv3"
  param {
    name: "conv3_w"
    lr_mult: 1
    decay_mult: 1
  }
  param {
    name: "conv3_b"
    lr_mult: 2
    decay_mult: 0
  }
  convolution_param {
    num_output: 384
    pad: 1
    kernel_size: 3
    weight_filler {
      type: "gaussian"
      std: 0.01
    }
    bias_filler {
      type: "constant"
      value: 0
    }
  }
}
layer {
  name: "relu3"
  type: "ReLU"
  bottom: "conv3"
  top: "conv3"
}
layer {
  name: "conv4"
  type: "Convolution"
  bottom: "conv3"
  top: "conv4"
  param {
    name: "conv4_w"
    lr_mult: 1
    decay_mult: 1
  }
  param {
    name: "conv4_b"
    lr_mult: 2
    decay_mult: 0
  }
  convolution_param {
    num_output: 384
    pad: 1
    kernel_size: 3
    group: 2
    weight_filler {
      type: "gaussian"
      std: 0.01
    }
    bias_filler {
      type: "constant"
      value: 1
    }
  }
}
layer {
  name: "relu4"
  type: "ReLU"
  bottom: "conv4"
  top: "conv4"
}
layer {
  name: "conv5"
  type: "Convolution"
  bottom: "conv4"
  top: "conv5"
  param {
    name: "conv5_w"
    lr_mult: 1
    decay_mult: 1
  }
  param {
    name: "conv5_b"
    lr_mult: 2
    decay_mult: 0
  }
  convolution_param {
    num_output: 256
    pad: 1
    kernel_size: 3
    group: 2
    weight_filler {
      type: "gaussian"
      std: 0.01
    }
    bias_filler {
      type: "constant"
      value: 1
    }
  }
}
layer {
  name: "relu5"
  type: "ReLU"
  bottom: "conv5"
  top: "conv5"
}
layer {
  name: "pool5"
  type: "Pooling"
  bottom: "conv5"
  top: "pool5"
  pooling_param {
    pool: MAX
    kernel_size: 3
    stride: 2
  }
}
layer {
  name: "fc6"
  type: "InnerProduct"
  bottom: "pool5"
  top: "fc6"
  param {
    name: "fc6_w"
    lr_mult: 1
    decay_mult: 1
  }
  param {
    name: "fc6_b"
    lr_mult: 2
    decay_mult: 0
  }
  inner_product_param {
    num_output: 4096
    weight_filler {
      type: "gaussian"
      std: 0.005
    }
    bias_filler {
      type: "constant"
      value: 1
    }
  }
}
layer {
  name: "relu6"
  type: "ReLU"
  bottom: "fc6"
  top: "fc6"
}
layer {
  name: "drop6"
  type: "Dropout"
  bottom: "fc6"
  top: "fc6"
  dropout_param {
    dropout_ratio: 0.5
  }
}
layer {
  name: "fc7"
  type: "InnerProduct"
  bottom: "fc6"
  top: "fc7"
  param {
    name: "fc7_w"
    lr_mult: 1
    decay_mult: 1
  }
  param {
    name: "fc7_b"
    lr_mult: 2
    decay_mult: 0
  }
  inner_product_param {
    num_output: 4096
    weight_filler {
      type: "gaussian"
      std: 0.005
    }
    bias_filler {
      type: "constant"
      value: 1
    }
  }
}
layer {
  name: "relu7"
  type: "ReLU"
  bottom: "fc7"
  top: "fc7"
}
layer {
  name: "drop7"
  type: "Dropout"
  bottom: "fc7"
  top: "fc7"
  dropout_param {
    dropout_ratio: 0.5
  }
}
layer {
  name: "fc8"
  type: "InnerProduct"
  bottom: "fc7"
  top: "fc8"
  param {
    name: "fc8_w"
    lr_mult: 1
    decay_mult: 1
  }
  param {
    name: "fc8_b"
    lr_mult: 2
    decay_mult: 0
  }
  inner_product_param {
    num_output: 2
    weight_filler {
      type: "gaussian"
      std: 0.01
    }
    bias_filler {
      type: "constant"
      value: 0
    }
  }
}
layer {
  name: "conv1_p"
  type: "Convolution"
  bottom: "data_p"
  top: "conv1_p"
  param {
    name: "conv1_w"
    lr_mult: 1
    decay_mult: 1
  }
  param {
    name: "conv1_b"
    lr_mult: 2
    decay_mult: 0
  }
  convolution_param {
    num_output: 96
    kernel_size: 11
    stride: 4
    weight_filler {
      type: "gaussian"
      std: 0.01
    }
    bias_filler {
      type: "constant"
      value: 0
    }
  }
}
layer {
  name: "relu1_p"
  type: "ReLU"
  bottom: "conv1_p"
  top: "conv1_p"
}
layer {
  name: "pool1_p"
  type: "Pooling"
  bottom: "conv1_p"
  top: "pool1_p"
  pooling_param {
    pool: MAX
    kernel_size: 3
    stride: 2
  }
}
layer {
  name: "norm1_p"
  type: "LRN"
  bottom: "pool1_p"
  top: "norm1_p"
  lrn_param {
    local_size: 5
    alpha: 0.0001
    beta: 0.75
  }
}
layer {
  name: "conv2_p"
  type: "Convolution"
  bottom: "norm1_p"
  top: "conv2_p"
  param {
    name: "conv2_w"
    lr_mult: 1
    decay_mult: 1
  }
  param {
    name: "conv2_b"
    lr_mult: 2
    decay_mult: 0
  }
  convolution_param {
    num_output: 256
    pad: 2
    kernel_size: 5
    group: 2
    weight_filler {
      type: "gaussian"
      std: 0.01
    }
    bias_filler {
      type: "constant"
      value: 1
    }
  }
}
layer {
  name: "relu2_p"
  type: "ReLU"
  bottom: "conv2_p"
  top: "conv2_p"
}
layer {
  name: "pool2_p"
  type: "Pooling"
  bottom: "conv2_p"
  top: "pool2_p"
  pooling_param {
    pool: MAX
    kernel_size: 3
    stride: 2
  }
}
layer {
  name: "norm2_p"
  type: "LRN"
  bottom: "pool2_p"
  top: "norm2_p"
  lrn_param {
    local_size: 5
    alpha: 0.0001
    beta: 0.75
  }
}
layer {
  name: "conv3_p"
  type: "Convolution"
  bottom: "norm2_p"
  top: "conv3_p"
  param {
    name: "conv3_w"
    lr_mult: 1
    decay_mult: 1
  }
  param {
    name: "conv3_b"
    lr_mult: 2
    decay_mult: 0
  }
  convolution_param {
    num_output: 384
    pad: 1
    kernel_size: 3
    weight_filler {
      type: "gaussian"
      std: 0.01
    }
    bias_filler {
      type: "constant"
      value: 0
    }
  }
}
layer {
  name: "relu3_p"
  type: "ReLU"
  bottom: "conv3_p"
  top: "conv3_p"
}
layer {
  name: "conv4_p"
  type: "Convolution"
  bottom: "conv3_p"
  top: "conv4_p"
  param {
    name: "conv4_w"
    lr_mult: 1
    decay_mult: 1
  }
  param {
    name: "conv4_b"
    lr_mult: 2
    decay_mult: 0
  }
  convolution_param {
    num_output: 384
    pad: 1
    kernel_size: 3
    group: 2
    weight_filler {
      type: "gaussian"
      std: 0.01
    }
    bias_filler {
      type: "constant"
      value: 1
    }
  }
}
layer {
  name: "relu4_p"
  type: "ReLU"
  bottom: "conv4_p"
  top: "conv4_p"
}
layer {
  name: "conv5_p"
  type: "Convolution"
  bottom: "conv4_p"
  top: "conv5_p"
  param {
    name: "conv5_w"
    lr_mult: 1
    decay_mult: 1
  }
  param {
    name: "conv5_b"
    lr_mult: 2
    decay_mult: 0
  }
  convolution_param {
    num_output: 256
    pad: 1
    kernel_size: 3
    group: 2
    weight_filler {
      type: "gaussian"
      std: 0.01
    }
    bias_filler {
      type: "constant"
      value: 1
    }
  }
}
layer {
  name: "relu5_p"
  type: "ReLU"
  bottom: "conv5_p"
  top: "conv5_p"
}
layer {
  name: "pool5_p"
  type: "Pooling"
  bottom: "conv5_p"
  top: "pool5_p"
  pooling_param {
    pool: MAX
    kernel_size: 3
    stride: 2
  }
}
layer {
  name: "fc6_p"
  type: "InnerProduct"
  bottom: "pool5_p"
  top: "fc6_p"
  param {
    name: "fc6_w"
    lr_mult: 1
    decay_mult: 1
  }
  param {
    name: "fc7_b"
    lr_mult: 2
    decay_mult: 0
  }
  inner_product_param {
    num_output: 4096
    weight_filler {
      type: "gaussian"
      std: 0.005
    }
    bias_filler {
      type: "constant"
      value: 1
    }
  }
}
layer {
  name: "relu6_p"
  type: "ReLU"
  bottom: "fc6_p"
  top: "fc6_p"
}
layer {
  name: "drop6_p"
  type: "Dropout"
  bottom: "fc6_p"
  top: "fc6_p"
  dropout_param {
    dropout_ratio: 0.5
  }
}
layer {
  name: "fc7_p"
  type: "InnerProduct"
  bottom: "fc6_p"
  top: "fc7_p"
  param {
    name: "fc7_w"
    lr_mult: 1
    decay_mult: 1
  }
  param {
    name: "fc7_b"
    lr_mult: 2
    decay_mult: 0
  }
  inner_product_param {
    num_output: 4096
    weight_filler {
      type: "gaussian"
      std: 0.005
    }
    bias_filler {
      type: "constant"
      value: 1
    }
  }
}
layer {
  name: "relu7_p"
  type: "ReLU"
  bottom: "fc7_p"
  top: "fc7_p"
}
layer {
  name: "drop7_p"
  type: "Dropout"
  bottom: "fc7_p"
  top: "fc7_p"
  dropout_param {
    dropout_ratio: 0.5
  }
}
layer {
  name: "fc8_p"
  type: "InnerProduct"
  bottom: "fc7_p"
  top: "fc8_p"
  param {
    name: "fc8_w"
    lr_mult: 1
    decay_mult: 1
  }
  param {
    name: "fc8_b"
    lr_mult: 2
    decay_mult: 0
  }
  inner_product_param {
    num_output: 2
    weight_filler {
      type: "gaussian"
      std: 0.01
    }
    bias_filler {
      type: "constant"
      value: 0
    }
  }
}
layer {
  name: "feat"
  type: "InnerProduct"
  bottom: "fc8"
  top: "feat"
  param {
    name: "feat_w"
    lr_mult: 10
  }
  param {
    name: "feat_b"
    lr_mult: 20
  }
  inner_product_param {
    num_output: 2
    weight_filler {
      type: "xavier"
    }
    bias_filler {
      type: "constant"
    }
  }
}
layer {
  name: "feat_p"
  type: "InnerProduct"
  bottom: "fc8_p"
  top: "feat_p"
  param {
    name: "feat_w"
    lr_mult: 10
  }
  param {
    name: "feat_b"
    lr_mult: 20
  }
  inner_product_param {
    num_output: 2
    weight_filler {
      type: "xavier"
    }
    bias_filler {
      type: "constant"
    }
  }
}
layer {
  name: "loss"
  type: "ContrastiveLoss"
  bottom: "feat"
  bottom: "feat_p"
  bottom: "sim"
  top: "loss"
  contrastive_loss_param {
    margin: 1
  }
}
I0722 23:58:47.474920 32749 layer_factory.hpp:74] Creating layer pair_data
I0722 23:58:47.474939 32749 net.cpp:90] Creating Layer pair_data
I0722 23:58:47.474952 32749 net.cpp:368] pair_data -> data
I0722 23:58:47.474980 32749 net.cpp:368] pair_data -> data_p
I0722 23:58:47.474993 32749 net.cpp:368] pair_data -> sim
I0722 23:58:47.475003 32749 net.cpp:120] Setting up pair_data
I0722 23:58:47.475018 32749 image_data_layer.cpp:64] Opening file '/media/gavin/e2bcddc2-a2ea-4321-839e-29b2db8373dc/cats-dogs/train.txt'
I0722 23:58:47.475059 32749 image_data_layer.cpp:77] Input set size: 2
I0722 23:58:47.575696 32749 image_data_layer.cpp:109] A total of 60000 images.
I0722 23:58:47.576431 32749 image_data_layer.cpp:133] output data size: 32,3,227,227
I0722 23:58:47.576895 32749 image_data_layer.cpp:133] output data size: 32,3,227,227
I0722 23:58:47.590095 32749 net.cpp:127] Top shape: 32 3 227 227 (4946784)
I0722 23:58:47.590133 32749 net.cpp:127] Top shape: 32 3 227 227 (4946784)
I0722 23:58:47.590142 32749 net.cpp:127] Top shape: 32 (32)
I0722 23:58:47.590152 32749 layer_factory.hpp:74] Creating layer conv1
I0722 23:58:47.590178 32749 net.cpp:90] Creating Layer conv1
I0722 23:58:47.590188 32749 net.cpp:410] conv1 <- data
I0722 23:58:47.590205 32749 net.cpp:368] conv1 -> conv1
I0722 23:58:47.590221 32749 net.cpp:120] Setting up conv1
I0722 23:58:47.672528 32749 net.cpp:127] Top shape: 32 96 55 55 (9292800)
I0722 23:58:47.672574 32749 layer_factory.hpp:74] Creating layer relu1
I0722 23:58:47.672590 32749 net.cpp:90] Creating Layer relu1
I0722 23:58:47.672597 32749 net.cpp:410] relu1 <- conv1
I0722 23:58:47.672607 32749 net.cpp:357] relu1 -> conv1 (in-place)
I0722 23:58:47.672618 32749 net.cpp:120] Setting up relu1
I0722 23:58:47.672811 32749 net.cpp:127] Top shape: 32 96 55 55 (9292800)
I0722 23:58:47.672819 32749 layer_factory.hpp:74] Creating layer pool1
I0722 23:58:47.672832 32749 net.cpp:90] Creating Layer pool1
I0722 23:58:47.672837 32749 net.cpp:410] pool1 <- conv1
I0722 23:58:47.672845 32749 net.cpp:368] pool1 -> pool1
I0722 23:58:47.672855 32749 net.cpp:120] Setting up pool1
I0722 23:58:47.672924 32749 net.cpp:127] Top shape: 32 96 27 27 (2239488)
I0722 23:58:47.672933 32749 layer_factory.hpp:74] Creating layer norm1
I0722 23:58:47.672966 32749 net.cpp:90] Creating Layer norm1
I0722 23:58:47.672973 32749 net.cpp:410] norm1 <- pool1
I0722 23:58:47.672981 32749 net.cpp:368] norm1 -> norm1
I0722 23:58:47.672991 32749 net.cpp:120] Setting up norm1
I0722 23:58:47.673002 32749 net.cpp:127] Top shape: 32 96 27 27 (2239488)
I0722 23:58:47.673007 32749 layer_factory.hpp:74] Creating layer conv2
I0722 23:58:47.673019 32749 net.cpp:90] Creating Layer conv2
I0722 23:58:47.673025 32749 net.cpp:410] conv2 <- norm1
I0722 23:58:47.673033 32749 net.cpp:368] conv2 -> conv2
I0722 23:58:47.673043 32749 net.cpp:120] Setting up conv2
I0722 23:58:47.687461 32749 net.cpp:127] Top shape: 32 256 27 27 (5971968)
I0722 23:58:47.687479 32749 layer_factory.hpp:74] Creating layer relu2
I0722 23:58:47.687489 32749 net.cpp:90] Creating Layer relu2
I0722 23:58:47.687495 32749 net.cpp:410] relu2 <- conv2
I0722 23:58:47.687505 32749 net.cpp:357] relu2 -> conv2 (in-place)
I0722 23:58:47.687512 32749 net.cpp:120] Setting up relu2
I0722 23:58:47.687563 32749 net.cpp:127] Top shape: 32 256 27 27 (5971968)
I0722 23:58:47.687571 32749 layer_factory.hpp:74] Creating layer pool2
I0722 23:58:47.687579 32749 net.cpp:90] Creating Layer pool2
I0722 23:58:47.687584 32749 net.cpp:410] pool2 <- conv2
I0722 23:58:47.687592 32749 net.cpp:368] pool2 -> pool2
I0722 23:58:47.687600 32749 net.cpp:120] Setting up pool2
I0722 23:58:47.687753 32749 net.cpp:127] Top shape: 32 256 13 13 (1384448)
I0722 23:58:47.687762 32749 layer_factory.hpp:74] Creating layer norm2
I0722 23:58:47.687772 32749 net.cpp:90] Creating Layer norm2
I0722 23:58:47.687777 32749 net.cpp:410] norm2 <- pool2
I0722 23:58:47.687785 32749 net.cpp:368] norm2 -> norm2
I0722 23:58:47.687794 32749 net.cpp:120] Setting up norm2
I0722 23:58:47.687803 32749 net.cpp:127] Top shape: 32 256 13 13 (1384448)
I0722 23:58:47.687809 32749 layer_factory.hpp:74] Creating layer conv3
I0722 23:58:47.687819 32749 net.cpp:90] Creating Layer conv3
I0722 23:58:47.687825 32749 net.cpp:410] conv3 <- norm2
I0722 23:58:47.687835 32749 net.cpp:368] conv3 -> conv3
I0722 23:58:47.687855 32749 net.cpp:120] Setting up conv3
I0722 23:58:47.727849 32749 net.cpp:127] Top shape: 32 384 13 13 (2076672)
I0722 23:58:47.727883 32749 layer_factory.hpp:74] Creating layer relu3
I0722 23:58:47.727895 32749 net.cpp:90] Creating Layer relu3
I0722 23:58:47.727902 32749 net.cpp:410] relu3 <- conv3
I0722 23:58:47.727912 32749 net.cpp:357] relu3 -> conv3 (in-place)
I0722 23:58:47.727922 32749 net.cpp:120] Setting up relu3
I0722 23:58:47.727988 32749 net.cpp:127] Top shape: 32 384 13 13 (2076672)
I0722 23:58:47.728005 32749 layer_factory.hpp:74] Creating layer conv4
I0722 23:58:47.728016 32749 net.cpp:90] Creating Layer conv4
I0722 23:58:47.728023 32749 net.cpp:410] conv4 <- conv3
I0722 23:58:47.728031 32749 net.cpp:368] conv4 -> conv4
I0722 23:58:47.728040 32749 net.cpp:120] Setting up conv4
I0722 23:58:47.758059 32749 net.cpp:127] Top shape: 32 384 13 13 (2076672)
I0722 23:58:47.758080 32749 layer_factory.hpp:74] Creating layer relu4
I0722 23:58:47.758090 32749 net.cpp:90] Creating Layer relu4
I0722 23:58:47.758096 32749 net.cpp:410] relu4 <- conv4
I0722 23:58:47.758105 32749 net.cpp:357] relu4 -> conv4 (in-place)
I0722 23:58:47.758115 32749 net.cpp:120] Setting up relu4
I0722 23:58:47.758167 32749 net.cpp:127] Top shape: 32 384 13 13 (2076672)
I0722 23:58:47.758173 32749 layer_factory.hpp:74] Creating layer conv5
I0722 23:58:47.758183 32749 net.cpp:90] Creating Layer conv5
I0722 23:58:47.758190 32749 net.cpp:410] conv5 <- conv4
I0722 23:58:47.758199 32749 net.cpp:368] conv5 -> conv5
I0722 23:58:47.758208 32749 net.cpp:120] Setting up conv5
I0722 23:58:47.778033 32749 net.cpp:127] Top shape: 32 256 13 13 (1384448)
I0722 23:58:47.778053 32749 layer_factory.hpp:74] Creating layer relu5
I0722 23:58:47.778062 32749 net.cpp:90] Creating Layer relu5
I0722 23:58:47.778069 32749 net.cpp:410] relu5 <- conv5
I0722 23:58:47.778077 32749 net.cpp:357] relu5 -> conv5 (in-place)
I0722 23:58:47.778086 32749 net.cpp:120] Setting up relu5
I0722 23:58:47.778141 32749 net.cpp:127] Top shape: 32 256 13 13 (1384448)
I0722 23:58:47.778146 32749 layer_factory.hpp:74] Creating layer pool5
I0722 23:58:47.778157 32749 net.cpp:90] Creating Layer pool5
I0722 23:58:47.778163 32749 net.cpp:410] pool5 <- conv5
I0722 23:58:47.778172 32749 net.cpp:368] pool5 -> pool5
I0722 23:58:47.778179 32749 net.cpp:120] Setting up pool5
I0722 23:58:47.778331 32749 net.cpp:127] Top shape: 32 256 6 6 (294912)
I0722 23:58:47.778338 32749 layer_factory.hpp:74] Creating layer fc6
I0722 23:58:47.778355 32749 net.cpp:90] Creating Layer fc6
I0722 23:58:47.778362 32749 net.cpp:410] fc6 <- pool5
I0722 23:58:47.778370 32749 net.cpp:368] fc6 -> fc6
I0722 23:58:47.778383 32749 net.cpp:120] Setting up fc6
I0722 23:58:49.396561 32749 net.cpp:127] Top shape: 32 4096 (131072)
I0722 23:58:49.396603 32749 layer_factory.hpp:74] Creating layer relu6
I0722 23:58:49.396617 32749 net.cpp:90] Creating Layer relu6
I0722 23:58:49.396633 32749 net.cpp:410] relu6 <- fc6
I0722 23:58:49.396646 32749 net.cpp:357] relu6 -> fc6 (in-place)
I0722 23:58:49.396656 32749 net.cpp:120] Setting up relu6
I0722 23:58:49.396745 32749 net.cpp:127] Top shape: 32 4096 (131072)
I0722 23:58:49.396752 32749 layer_factory.hpp:74] Creating layer drop6
I0722 23:58:49.396766 32749 net.cpp:90] Creating Layer drop6
I0722 23:58:49.396772 32749 net.cpp:410] drop6 <- fc6
I0722 23:58:49.396780 32749 net.cpp:357] drop6 -> fc6 (in-place)
I0722 23:58:49.396791 32749 net.cpp:120] Setting up drop6
I0722 23:58:49.396803 32749 net.cpp:127] Top shape: 32 4096 (131072)
I0722 23:58:49.396809 32749 layer_factory.hpp:74] Creating layer fc7
I0722 23:58:49.396821 32749 net.cpp:90] Creating Layer fc7
I0722 23:58:49.396826 32749 net.cpp:410] fc7 <- fc6
I0722 23:58:49.396836 32749 net.cpp:368] fc7 -> fc7
I0722 23:58:49.396844 32749 net.cpp:120] Setting up fc7
I0722 23:58:50.115983 32749 net.cpp:127] Top shape: 32 4096 (131072)
I0722 23:58:50.116039 32749 layer_factory.hpp:74] Creating layer relu7
I0722 23:58:50.116055 32749 net.cpp:90] Creating Layer relu7
I0722 23:58:50.116063 32749 net.cpp:410] relu7 <- fc7
I0722 23:58:50.116073 32749 net.cpp:357] relu7 -> fc7 (in-place)
I0722 23:58:50.116086 32749 net.cpp:120] Setting up relu7
I0722 23:58:50.116191 32749 net.cpp:127] Top shape: 32 4096 (131072)
I0722 23:58:50.116202 32749 layer_factory.hpp:74] Creating layer drop7
I0722 23:58:50.116212 32749 net.cpp:90] Creating Layer drop7
I0722 23:58:50.116228 32749 net.cpp:410] drop7 <- fc7
I0722 23:58:50.116237 32749 net.cpp:357] drop7 -> fc7 (in-place)
I0722 23:58:50.116248 32749 net.cpp:120] Setting up drop7
I0722 23:58:50.116274 32749 net.cpp:127] Top shape: 32 4096 (131072)
I0722 23:58:50.116299 32749 layer_factory.hpp:74] Creating layer fc8
I0722 23:58:50.116313 32749 net.cpp:90] Creating Layer fc8
I0722 23:58:50.116320 32749 net.cpp:410] fc8 <- fc7
I0722 23:58:50.116333 32749 net.cpp:368] fc8 -> fc8
I0722 23:58:50.116343 32749 net.cpp:120] Setting up fc8
I0722 23:58:50.116758 32749 net.cpp:127] Top shape: 32 2 (64)
I0722 23:58:50.116771 32749 layer_factory.hpp:74] Creating layer conv1_p
I0722 23:58:50.116785 32749 net.cpp:90] Creating Layer conv1_p
I0722 23:58:50.116792 32749 net.cpp:410] conv1_p <- data_p
I0722 23:58:50.116806 32749 net.cpp:368] conv1_p -> conv1_p
I0722 23:58:50.116822 32749 net.cpp:120] Setting up conv1_p
I0722 23:58:50.118782 32749 net.cpp:127] Top shape: 32 96 55 55 (9292800)
I0722 23:58:50.118806 32749 net.cpp:459] Sharing parameters 'conv1_w' owned by layer 'conv1', param index 0
I0722 23:58:50.118820 32749 net.cpp:459] Sharing parameters 'conv1_b' owned by layer 'conv1', param index 1
I0722 23:58:50.118829 32749 layer_factory.hpp:74] Creating layer relu1_p
I0722 23:58:50.118836 32749 net.cpp:90] Creating Layer relu1_p
I0722 23:58:50.118842 32749 net.cpp:410] relu1_p <- conv1_p
I0722 23:58:50.118850 32749 net.cpp:357] relu1_p -> conv1_p (in-place)
I0722 23:58:50.118860 32749 net.cpp:120] Setting up relu1_p
I0722 23:58:50.118924 32749 net.cpp:127] Top shape: 32 96 55 55 (9292800)
I0722 23:58:50.118934 32749 layer_factory.hpp:74] Creating layer pool1_p
I0722 23:58:50.118945 32749 net.cpp:90] Creating Layer pool1_p
I0722 23:58:50.118952 32749 net.cpp:410] pool1_p <- conv1_p
I0722 23:58:50.118968 32749 net.cpp:368] pool1_p -> pool1_p
I0722 23:58:50.118978 32749 net.cpp:120] Setting up pool1_p
I0722 23:58:50.119155 32749 net.cpp:127] Top shape: 32 96 27 27 (2239488)
I0722 23:58:50.119166 32749 layer_factory.hpp:74] Creating layer norm1_p
I0722 23:58:50.119177 32749 net.cpp:90] Creating Layer norm1_p
I0722 23:58:50.119184 32749 net.cpp:410] norm1_p <- pool1_p
I0722 23:58:50.119194 32749 net.cpp:368] norm1_p -> norm1_p
I0722 23:58:50.119204 32749 net.cpp:120] Setting up norm1_p
I0722 23:58:50.119220 32749 net.cpp:127] Top shape: 32 96 27 27 (2239488)
I0722 23:58:50.119227 32749 layer_factory.hpp:74] Creating layer conv2_p
I0722 23:58:50.119237 32749 net.cpp:90] Creating Layer conv2_p
I0722 23:58:50.119246 32749 net.cpp:410] conv2_p <- norm1_p
I0722 23:58:50.119254 32749 net.cpp:368] conv2_p -> conv2_p
I0722 23:58:50.119264 32749 net.cpp:120] Setting up conv2_p
I0722 23:58:50.133697 32749 net.cpp:127] Top shape: 32 256 27 27 (5971968)
I0722 23:58:50.133713 32749 net.cpp:459] Sharing parameters 'conv2_w' owned by layer 'conv2', param index 0
I0722 23:58:50.133723 32749 net.cpp:459] Sharing parameters 'conv2_b' owned by layer 'conv2', param index 1
I0722 23:58:50.133729 32749 layer_factory.hpp:74] Creating layer relu2_p
I0722 23:58:50.133738 32749 net.cpp:90] Creating Layer relu2_p
I0722 23:58:50.133749 32749 net.cpp:410] relu2_p <- conv2_p
I0722 23:58:50.133759 32749 net.cpp:357] relu2_p -> conv2_p (in-place)
I0722 23:58:50.133766 32749 net.cpp:120] Setting up relu2_p
I0722 23:58:50.133828 32749 net.cpp:127] Top shape: 32 256 27 27 (5971968)
I0722 23:58:50.133838 32749 layer_factory.hpp:74] Creating layer pool2_p
I0722 23:58:50.133847 32749 net.cpp:90] Creating Layer pool2_p
I0722 23:58:50.133853 32749 net.cpp:410] pool2_p <- conv2_p
I0722 23:58:50.133869 32749 net.cpp:368] pool2_p -> pool2_p
I0722 23:58:50.133878 32749 net.cpp:120] Setting up pool2_p
I0722 23:58:50.133939 32749 net.cpp:127] Top shape: 32 256 13 13 (1384448)
I0722 23:58:50.133945 32749 layer_factory.hpp:74] Creating layer norm2_p
I0722 23:58:50.133955 32749 net.cpp:90] Creating Layer norm2_p
I0722 23:58:50.133960 32749 net.cpp:410] norm2_p <- pool2_p
I0722 23:58:50.133970 32749 net.cpp:368] norm2_p -> norm2_p
I0722 23:58:50.133977 32749 net.cpp:120] Setting up norm2_p
I0722 23:58:50.133987 32749 net.cpp:127] Top shape: 32 256 13 13 (1384448)
I0722 23:58:50.133993 32749 layer_factory.hpp:74] Creating layer conv3_p
I0722 23:58:50.134011 32749 net.cpp:90] Creating Layer conv3_p
I0722 23:58:50.134027 32749 net.cpp:410] conv3_p <- norm2_p
I0722 23:58:50.134035 32749 net.cpp:368] conv3_p -> conv3_p
I0722 23:58:50.134044 32749 net.cpp:120] Setting up conv3_p
I0722 23:58:50.172875 32749 net.cpp:127] Top shape: 32 384 13 13 (2076672)
I0722 23:58:50.172904 32749 net.cpp:459] Sharing parameters 'conv3_w' owned by layer 'conv3', param index 0
I0722 23:58:50.173058 32749 net.cpp:459] Sharing parameters 'conv3_b' owned by layer 'conv3', param index 1
I0722 23:58:50.173070 32749 layer_factory.hpp:74] Creating layer relu3_p
I0722 23:58:50.173090 32749 net.cpp:90] Creating Layer relu3_p
I0722 23:58:50.173099 32749 net.cpp:410] relu3_p <- conv3_p
I0722 23:58:50.173107 32749 net.cpp:357] relu3_p -> conv3_p (in-place)
I0722 23:58:50.173117 32749 net.cpp:120] Setting up relu3_p
I0722 23:58:50.173176 32749 net.cpp:127] Top shape: 32 384 13 13 (2076672)
I0722 23:58:50.173187 32749 layer_factory.hpp:74] Creating layer conv4_p
I0722 23:58:50.173197 32749 net.cpp:90] Creating Layer conv4_p
I0722 23:58:50.173204 32749 net.cpp:410] conv4_p <- conv3_p
I0722 23:58:50.173214 32749 net.cpp:368] conv4_p -> conv4_p
I0722 23:58:50.173224 32749 net.cpp:120] Setting up conv4_p
I0722 23:58:50.203183 32749 net.cpp:127] Top shape: 32 384 13 13 (2076672)
I0722 23:58:50.203202 32749 net.cpp:459] Sharing parameters 'conv4_w' owned by layer 'conv4', param index 0
I0722 23:58:50.203217 32749 net.cpp:459] Sharing parameters 'conv4_b' owned by layer 'conv4', param index 1
I0722 23:58:50.203225 32749 layer_factory.hpp:74] Creating layer relu4_p
I0722 23:58:50.203236 32749 net.cpp:90] Creating Layer relu4_p
I0722 23:58:50.203244 32749 net.cpp:410] relu4_p <- conv4_p
I0722 23:58:50.203253 32749 net.cpp:357] relu4_p -> conv4_p (in-place)
I0722 23:58:50.203264 32749 net.cpp:120] Setting up relu4_p
I0722 23:58:50.203424 32749 net.cpp:127] Top shape: 32 384 13 13 (2076672)
I0722 23:58:50.203435 32749 layer_factory.hpp:74] Creating layer conv5_p
I0722 23:58:50.203446 32749 net.cpp:90] Creating Layer conv5_p
I0722 23:58:50.203454 32749 net.cpp:410] conv5_p <- conv4_p
I0722 23:58:50.203464 32749 net.cpp:368] conv5_p -> conv5_p
I0722 23:58:50.203474 32749 net.cpp:120] Setting up conv5_p
I0722 23:58:50.222728 32749 net.cpp:127] Top shape: 32 256 13 13 (1384448)
I0722 23:58:50.222756 32749 net.cpp:459] Sharing parameters 'conv5_w' owned by layer 'conv5', param index 0
I0722 23:58:50.222767 32749 net.cpp:459] Sharing parameters 'conv5_b' owned by layer 'conv5', param index 1
I0722 23:58:50.222774 32749 layer_factory.hpp:74] Creating layer relu5_p
I0722 23:58:50.222784 32749 net.cpp:90] Creating Layer relu5_p
I0722 23:58:50.222790 32749 net.cpp:410] relu5_p <- conv5_p
I0722 23:58:50.222800 32749 net.cpp:357] relu5_p -> conv5_p (in-place)
I0722 23:58:50.222810 32749 net.cpp:120] Setting up relu5_p
I0722 23:58:50.222865 32749 net.cpp:127] Top shape: 32 256 13 13 (1384448)
I0722 23:58:50.222887 32749 layer_factory.hpp:74] Creating layer pool5_p
I0722 23:58:50.222897 32749 net.cpp:90] Creating Layer pool5_p
I0722 23:58:50.222903 32749 net.cpp:410] pool5_p <- conv5_p
I0722 23:58:50.222913 32749 net.cpp:368] pool5_p -> pool5_p
I0722 23:58:50.222929 32749 net.cpp:120] Setting up pool5_p
I0722 23:58:50.222990 32749 net.cpp:127] Top shape: 32 256 6 6 (294912)
I0722 23:58:50.222996 32749 layer_factory.hpp:74] Creating layer fc6_p
I0722 23:58:50.223007 32749 net.cpp:90] Creating Layer fc6_p
I0722 23:58:50.223014 32749 net.cpp:410] fc6_p <- pool5_p
I0722 23:58:50.223024 32749 net.cpp:368] fc6_p -> fc6_p
I0722 23:58:50.223034 32749 net.cpp:120] Setting up fc6_p
I0722 23:58:51.847784 32749 net.cpp:127] Top shape: 32 4096 (131072)
I0722 23:58:51.847838 32749 net.cpp:459] Sharing parameters 'fc6_w' owned by layer 'fc6', param index 0
I0722 23:58:51.849007 32749 net.cpp:459] Sharing parameters 'fc7_b' owned by layer 'fc7', param index 1
I0722 23:58:51.849035 32749 layer_factory.hpp:74] Creating layer relu6_p
I0722 23:58:51.849050 32749 net.cpp:90] Creating Layer relu6_p
I0722 23:58:51.849059 32749 net.cpp:410] relu6_p <- fc6_p
I0722 23:58:51.849084 32749 net.cpp:357] relu6_p -> fc6_p (in-place)
I0722 23:58:51.849113 32749 net.cpp:120] Setting up relu6_p
I0722 23:58:51.849393 32749 net.cpp:127] Top shape: 32 4096 (131072)
I0722 23:58:51.849406 32749 layer_factory.hpp:74] Creating layer drop6_p
I0722 23:58:51.849418 32749 net.cpp:90] Creating Layer drop6_p
I0722 23:58:51.849426 32749 net.cpp:410] drop6_p <- fc6_p
I0722 23:58:51.849436 32749 net.cpp:357] drop6_p -> fc6_p (in-place)
I0722 23:58:51.849445 32749 net.cpp:120] Setting up drop6_p
I0722 23:58:51.849462 32749 net.cpp:127] Top shape: 32 4096 (131072)
I0722 23:58:51.849469 32749 layer_factory.hpp:74] Creating layer fc7_p
I0722 23:58:51.849483 32749 net.cpp:90] Creating Layer fc7_p
I0722 23:58:51.849489 32749 net.cpp:410] fc7_p <- fc6_p
I0722 23:58:51.849499 32749 net.cpp:368] fc7_p -> fc7_p
I0722 23:58:51.849511 32749 net.cpp:120] Setting up fc7_p
I0722 23:58:52.569569 32749 net.cpp:127] Top shape: 32 4096 (131072)
I0722 23:58:52.569639 32749 net.cpp:459] Sharing parameters 'fc7_w' owned by layer 'fc7', param index 0
I0722 23:58:52.570336 32749 net.cpp:459] Sharing parameters 'fc7_b' owned by layer 'fc7', param index 1
I0722 23:58:52.573760 32749 layer_factory.hpp:74] Creating layer relu7_p
I0722 23:58:52.573804 32749 net.cpp:90] Creating Layer relu7_p
I0722 23:58:52.573817 32749 net.cpp:410] relu7_p <- fc7_p
I0722 23:58:52.573865 32749 net.cpp:357] relu7_p -> fc7_p (in-place)
I0722 23:58:52.573879 32749 net.cpp:120] Setting up relu7_p
I0722 23:58:52.574003 32749 net.cpp:127] Top shape: 32 4096 (131072)
I0722 23:58:52.574014 32749 layer_factory.hpp:74] Creating layer drop7_p
I0722 23:58:52.574025 32749 net.cpp:90] Creating Layer drop7_p
I0722 23:58:52.574033 32749 net.cpp:410] drop7_p <- fc7_p
I0722 23:58:52.574048 32749 net.cpp:357] drop7_p -> fc7_p (in-place)
I0722 23:58:52.574057 32749 net.cpp:120] Setting up drop7_p
I0722 23:58:52.574069 32749 net.cpp:127] Top shape: 32 4096 (131072)
I0722 23:58:52.574074 32749 layer_factory.hpp:74] Creating layer fc8_p
I0722 23:58:52.574086 32749 net.cpp:90] Creating Layer fc8_p
I0722 23:58:52.574093 32749 net.cpp:410] fc8_p <- fc7_p
I0722 23:58:52.574103 32749 net.cpp:368] fc8_p -> fc8_p
I0722 23:58:52.574115 32749 net.cpp:120] Setting up fc8_p
I0722 23:58:52.574512 32749 net.cpp:127] Top shape: 32 2 (64)
I0722 23:58:52.574522 32749 net.cpp:459] Sharing parameters 'fc8_w' owned by layer 'fc8', param index 0
I0722 23:58:52.574532 32749 net.cpp:459] Sharing parameters 'fc8_b' owned by layer 'fc8', param index 1
I0722 23:58:52.574542 32749 layer_factory.hpp:74] Creating layer feat
I0722 23:58:52.574551 32749 net.cpp:90] Creating Layer feat
I0722 23:58:52.574558 32749 net.cpp:410] feat <- fc8
I0722 23:58:52.574569 32749 net.cpp:368] feat -> feat
I0722 23:58:52.574585 32749 net.cpp:120] Setting up feat
I0722 23:58:52.574615 32749 net.cpp:127] Top shape: 32 2 (64)
I0722 23:58:52.574635 32749 layer_factory.hpp:74] Creating layer feat_p
I0722 23:58:52.574645 32749 net.cpp:90] Creating Layer feat_p
I0722 23:58:52.574654 32749 net.cpp:410] feat_p <- fc8_p
I0722 23:58:52.574664 32749 net.cpp:368] feat_p -> feat_p
I0722 23:58:52.574677 32749 net.cpp:120] Setting up feat_p
I0722 23:58:52.574693 32749 net.cpp:127] Top shape: 32 2 (64)
I0722 23:58:52.574702 32749 net.cpp:459] Sharing parameters 'feat_w' owned by layer 'feat', param index 0
I0722 23:58:52.574710 32749 net.cpp:459] Sharing parameters 'feat_b' owned by layer 'feat', param index 1
I0722 23:58:52.574718 32749 layer_factory.hpp:74] Creating layer loss
I0722 23:58:52.574731 32749 net.cpp:90] Creating Layer loss
I0722 23:58:52.574739 32749 net.cpp:410] loss <- feat
…
